results_CNN_adamax/best_cnn.pth (torch, 468076 bytes, 19 tensors)

module.layer1.0.weight f4 [16, 3, 2, 2]
000000 ff 4f 3d 3d 6b c9 fc 3c a1 e6 af bd be 7f 85 3d
       0.04621887 0.030857762 -0.08588911 0.065185055
000010 c5 6f 5c be b9 02 a6 bd c2 43 02 3e 77 e8 97 3e
       -0.21527012 -0.08105988 0.1272116 0.29669544
000020 e3 3a ef 3d 48 08 99 bd c1 e3 10 bd 25 7f e7 bd
       0.116811536 -0.07472283 -0.035373453 -0.11303548
000030 3f 4e 48 3e e8 31 01 3e e2 72 1d 3e 44 e1 a9 3e
       0.19561099 0.12616694 0.15375856 0.33179677
000040 01 34 46 bd 22 4f 82 3d c7 b5 ac 3d 08 20 70 3c
       -0.04838944 0.0636275 0.08433109 0.014656074
000050 a1 5c 9e bb bc 50 53 be e6 47 63 be a0 3c 60 be
       -0.0048328196 -0.20636266 -0.22195396 -0.21898127
000060 80 64 a0 be 3e 67 4d be 22 e5 d9 be 02 96 c9 be
       -0.31326675 -0.20058915 -0.42557627 -0.3937226
000070 d7 0e a3 be 7a 4c 33 3d 9a b7 0a 3e af 5f 0e 3e
       -0.3184726 0.043774106 0.13546601 0.13903688
000080 8e 15 1e 3e 5c 12 97 3d ba af 10 3e 51 c4 03 be
       0.1543791 0.07376549 0.14129534 -0.12867858
000090 91 14 b1 3a cc 55 36 be b4 d4 aa 3c 31 df b2 bd
       0.0013510158 -0.17806166 0.020853378 -0.08733977
0000a0 bd ca 6e 3e a8 30 55 3e e8 5f 36 3e 18 62 11 3e
       0.23319526 0.20819342 0.17810023 0.14197576
0000b0 db 72 c0 bd a4 81 2c be 45 9d 5a 3d dd 38 10 3e
       -0.09396907 -0.16846329 0.05337264 0.14084192
0000c0 95 65 73 be 35 40 67 bd ab 18 74 be 93 e2 73 3e
       -0.23769219 -0.056457717 -0.23837535 0.238169
0000d0 6c fe 4c be 28 be 9a bd ab 44 0b bd 24 90 84 3d
       -0.20018929 -0.07555801 -0.034001034 0.06472805
0000e0 08 83 9c 3d 5e 1e b1 3b 3e 4f a3 3e 94 3c 9e 3e
       0.0764218 0.0054052314 0.31896394 0.30905592
0000f0 36 a5 60 be 43 51 96 be 27 e4 0f 3e 86 6c 3f 3e
       -0.21938023 -0.29358873 0.14051877 0.18693742
000100 ce ab f7 3c a8 c8 76 3e 8b 2b 42 3e 42 e2 95 bc
       0.03023329 0.24099982 0.18961923 -0.018296365
000110 0c 7e 89 be e5 26 25 3e f5 64 4b 3e 06 e7 2d be
       -0.2685398 0.16128118 0.19862731 -0.1698266
000120 f0 69 8a be ae b8 ab bd 91 a1 97 be 0f 62 74 be
       -0.2703395 -0.08384834 -0.29615453 -0.23865531
000130 dd ca c9 bd 4d ba 57 3e a2 2f d9 bd 29 f2 3b be
       -0.09853146 0.21067162 -0.10604788 -0.18354096
000140 fd 3e 68 bd b7 f9 44 bd 40 af 29 3e eb 2f a6 bb
       -0.056700695 -0.04808971 0.16570759 -0.0050716302
000150 44 ca a2 3e ef a4 f2 bd ab 87 1a 3a a7 e6 85 3e
       0.3179494 -0.11847865 0.000589485 0.26152536
000160 08 41 8c be 31 a9 1a be 80 d6 05 be a5 75 8c 3e
       -0.27393365 -0.15103604 -0.13070107 0.27433506
000170 47 85 5f 3e b1 73 ca bd 4f f9 19 be 4c 26 5a bc
       0.21828185 -0.09885348 -0.1503651 -0.013314795
000180 97 d0 00 bd 20 50 04 3e b0 9b e6 bd ea 6b 2a be
       -0.031448927 0.1292119 -0.11260164 -0.16642728
000190 5a bc 67 3d 34 4a 33 3e 00 e8 b5 3e 83 f6 f9 3d
       0.05657611 0.17508775 0.35528564 0.122052215
0001a0 7b d9 88 be c5 14 87 3b 45 9f 5a 3d 84 79 bc 3c
       -0.26728424 0.004122349 0.053374548 0.023007162
0001b0 a2 1a 1f bd 0f 35 b1 3c d8 f3 23 3e 3c 98 24 3e
       -0.03884376 0.021631746 0.16010988 0.16073698
0001c0 33 d3 6a 3e fc 7a 1c be 80 30 49 3e ad 5d 0f be
       0.22932129 -0.1528129 0.19647408 -0.14000578
0001d0 42 bd d3 bd 04 2c 20 be 3b 45 27 be 2a a3 2b 3e
       -0.103388324 -0.1564179 -0.16335003 0.16761461
0001e0 ce 6c 41 3e 3e 21 a7 bc 91 67 3e bd e9 3f 88 bc
       0.18889162 -0.020401593 -0.046485487 -0.016632037
0001f0 c0 48 6c 3e 38 a3 85 bd ac e1 80 be ed 81 95 3c
       0.23074627 -0.06525272 -0.25172174 0.01825043
000200 e9 4e a6 be 00 ff 60 bd 15 37 e8 3d 8a 7c 2e 3e
       -0.3248208 -0.054930687 0.11338631 0.17039695
000210 01 ae c8 bd 9c ab 8a 3c 17 1e 32 be 3b f2 91 be
       -0.097988136 0.016927533 -0.17394291 -0.2850512
000220 55 b9 2a 3e ea bd 95 3e f0 4a 4d be c3 e7 7e be
       0.16672261 0.29246455 -0.20048118 -0.24893098
000230 7b fd 8b be 45 5c 8d 3d e5 99 ac 3e 0c b8 3f be
       -0.27341828 0.06902365 0.33711162 -0.18722552
000240 ae 5f 22 3e 79 21 34 3e d4 c4 b3 3e d0 12 7d 3d
       0.15856811 0.17590894 0.35111105 0.06178552
000250 b1 56 ca 3d f7 5f c9 bd 29 68 70 be 42 a4 b2 3d
       0.09879816 -0.09832757 -0.23477234 0.08722736
000260 da 8b 1d be 0c 06 b6 bb 5f 21 02 bd bd f9 2e be
       -0.1538538 -0.00555492 -0.031770106 -0.17087455
000270 17 84 80 3e 44 2f 6b 3e 32 ac bf 3e 76 65 19 3e
       0.25100777 0.22967249 0.37436062 0.1498011
000280 1f 98 63 be 75 55 2a be 25 e1 11 bc 78 51 52 3c
       -0.22225998 -0.16634162 -0.008903776 0.0128368065
000290 bd e0 62 be e0 11 11 3e 55 4e 58 be 70 ef 95 bd
       -0.22156043 0.14166975 -0.21123631 -0.0732106
0002a0 d4 8c 85 be 41 b2 46 3d 60 a3 22 bd 04 1e ff 3d
       -0.26084006 0.04850984 -0.039706588 0.12456897
0002b0 c4 a9 81 bd a2 93 95 be 76 49 59 3e 29 65 82 be
       -0.06331208 -0.29214197 0.2121943 -0.25467804
0002c0 8f 47 51 3e de a9 54 bd 2d f8 70 3e 4d b5 60 3e
       0.20437454 -0.05191981 0.23532172 0.21944161
0002d0 71 74 22 be 2d d9 83 be 72 e3 d1 bc 31 da 39 3c
       -0.15864731 -0.2575163 -0.02562115 0.011343525
0002e0 75 1f e5 3d 9d 69 03 3e 3f bb 36 3e 4f da 98 3e
       0.111876406 0.12833257 0.17844866 0.29854056
0002f0 33 35 a5 3d 7f 65 f0 3d 00 37 0d 3d 57 27 ee 3c
       0.080667876 0.11738109 0.03447628 0.029071493

module.layer1.0.bias f4 [16]
000000 53 07 7b b9 ca 18 d0 38 86 00 0b 3a e9 c1 5b b9
       -0.00023939954 9.92283e-05 0.0005302507 -0.00020957705
000010 7e 81 a7 b9 7f 11 0a b9 58 43 17 3a 4c e6 1e 3b
       -0.000319492 -0.00013167223 0.0005770228 0.0024246154
000020 71 6a 08 3a 7c 8f b6 ba 91 43 03 bb a5 76 e9 3a
       0.0005203849 -0.001392826 -0.0020029286 0.0017811848
000030 4a 03 a5 b9 16 e7 1e 3b ab 25 2d ba f7 7b 15 b9
       -0.00031473703 0.0024246625 -0.0006605039 -0.00014255928

module.layer1.1.weight f4 [16]
000000 78 6c 51 3f 80 a6 52 3f 78 a0 3c 3f 73 d1 22 3f
       0.81806135 0.8228531 0.73682356 0.63600844
000010 33 9f 84 3f 48 c3 16 3f e2 21 3c 3f 82 97 52 3f
       1.0361084 0.58891726 0.734892 0.8226243
000020 ec 25 20 3f 43 7a 59 3f 21 d3 1e 3f cd 11 39 3f
       0.62557864 0.8495218 0.6204091 0.72292787
000030 0c 01 73 3f 83 c0 76 3f a6 32 85 3f e6 56 26 3f
       0.9492347 0.963875 1.0406082 0.64976346

module.layer1.1.bias f4 [16]
000000 be d5 11 bf 88 33 e8 be ab 2d d3 be 85 50 c0 be
       -0.5696677 -0.45351815 -0.4124578 -0.37561432
000010 e1 d3 63 be 33 80 b1 be 82 16 dd be 8f 53 b0 be
       -0.22248794 -0.3466812 -0.43181235 -0.3443875
000020 88 33 b9 be fc cf f7 be 4f 0f 0c bf f4 89 de be
       -0.36172128 -0.48400867 -0.5471086 -0.43464625
000030 2d 84 f4 be 70 e3 df be e3 31 9c be 08 97 91 be
       -0.47757092 -0.4372821 -0.3050681 -0.2843554

module.layer1.1.running_mean f4 [16]
000000 05 13 51 3d 86 3c 33 3e e1 cf 2e bf 8e ab 8a 3e
       0.05104353 0.17503557 -0.6828595 0.2708401
000010 d3 65 c9 3d 1e 9e dd 3d 9b db 20 bf cd 5c b0 3d
       0.098338746 0.10821174 -0.6283509 0.0861145
000020 39 85 57 3e 38 47 ef 3d a2 c6 0e bd 55 c7 b8 be
       0.21046914 0.11683506 -0.0348574 -0.36089578
000030 99 93 21 3e 66 af 33 3e d1 f5 38 3d 74 0b a8 3e
       0.1577896 0.17547378 0.045156304 0.32821238

module.layer1.1.running_var f4 [16]
000000 a1 9a 3a 3b 8c 8d 32 3d d5 cd 0d 3e 4a a1 7d 3d
       0.0028473514 0.04359202 0.1384805 0.061921395
000010 3a 23 00 3d 5d f9 9a 3c b5 70 d8 3d 6a 11 4d 3c
       0.031283595 0.018917734 0.10568372 0.012516359
000020 d2 93 2f 3d b3 58 20 3c 1a 04 1f 3b d9 63 18 3d
       0.04286558 0.009786773 0.002426392 0.037204597
000030 6b 2d f9 3c f2 2d 63 3d af 3f 9a 3c 7d 59 bd 3d
       0.030417165 0.05546374 0.018829195 0.09245584

module.layer2.0.weight f4 [32, 16, 2, 2]
000000 13 1c 88 bc bc 6c a7 3d 88 0f 0d 3d 5c 4f 97 3c
       -0.01661495 0.08175036 0.03443864 0.018470459
000010 75 6b 8d be bf 55 5a be e4 7c a0 be 59 0a 5b be
       -0.27621046 -0.21321772 -0.31345284 -0.21390666
000020 56 2e 12 3d 9c d1 88 3c f3 cd 0f 3c e2 7e 12 3a
       0.03568872 0.016701512 0.008777129 0.0005588365
000030 00 7e 1d 3c aa 8e 0e 3d c1 b6 31 3c 42 1d 75 3d
       0.00961256 0.034804024 0.010846795 0.059842356
000040 58 14 2b bd 36 f3 44 bd 69 2c c0 bc 40 e3 8f bc
       -0.04176745 -0.048083507 -0.023458676 -0.017564416
000050 2e f1 c0 3b 29 cf 02 3d 80 84 a7 bc 12 a3 00 3d
       0.005888126 0.031935845 -0.020448923 0.031405516
000060 a1 ac 30 3d e4 62 57 bd 39 b2 0e 3d 37 88 d0 bc
       0.04313338 -0.052584544 0.034837935 -0.025455577
000070 70 f4 1a 3e 63 be d9 3c 3a c0 cc 3d 82 0d 8d bc
       0.15132308 0.026580041 0.09997602 -0.017218355
000080 af 69 bf bc dc 31 46 3d 1f d7 66 3b 66 71 20 3d
       -0.023365824 0.048387393 0.0035223437 0.039170645
000090 c5 aa 0e be 54 27 17 be dc 19 67 be 5f 5f 69 be
       -0.13932331 -0.14761096 -0.22568458 -0.22790287
0000a0 01 85 a7 bc 68 fb 3a bd b3 cc 46 be 7e ca 4f be
       -0.020449163 -0.045649916 -0.19414024 -0.20292088
0000b0 05 0c 22 3d 33 20 09 bc 60 20 c6 3c 12 e3 b8 3c
       0.039562244 -0.008369493 0.02418536 0.022569213
0000c0 a4 99 04 be 8f a5 1f be 2b b3 b0 bd 34 e9 f5 bd
       -0.12949234 -0.155905 -0.086279236 -0.120073706
0000d0 97 12 47 be e1 58 77 be ef 79 36 be 84 e3 48 be
       -0.19440685 -0.24154998 -0.17819951 -0.1961804
0000e0 fc c9 e3 bd 58 89 62 be a0 26 fd bd 10 05 51 be
       -0.1112251 -0.22122705 -0.12360883 -0.20412087
0000f0 41 76 dc 3b d9 b4 35 3c ff 64 00 3c 32 d6 20 3d
       0.006727964 0.011090481 0.007836579 0.039266773
000100 42 84 12 3d 6b a2 1b 3e 2b 11 4b be 2d b2 68 bd
       0.035770662 0.15198676 -0.19830768 -0.056810547
000110 e6 4a 0e be 3b 13 82 be cc 00 5e be 40 7b 88 be
       -0.13895759 -0.25405297 -0.21679991 -0.26656532
000120 67 51 aa bc 7c 97 a1 3d 07 52 07 3c f9 0e 82 3c
       -0.020790769 0.078902215 0.008259303 0.01587628
000130 a1 dd 07 bc 48 ea 8b 3d a5 3e 96 3c 40 3f d6 3b
       -0.008292587 0.06831795 0.018340418 0.0065383017
000140 fe 86 82 bc 8c dd ca 3b 03 6f 2a bd c6 22 79 bc
       -0.01593351 0.006190961 -0.041609775 -0.015206045
000150 d4 df bd bc 16 30 c9 3c 8b 25 07 3d 2a b5 0d 3d
       -0.023178019 0.024559062 0.03299479 0.0345966
000160 8b 19 4a bd e9 f9 f4 3d 58 ca 84 bd 77 6a 38 3e
       -0.049340766 0.11961729 -0.064839065 0.18009363
000170 14 46 d7 3b 9d aa b0 39 19 4f b4 3d e1 2d e9 3d
       0.0065696333 0.00033696453 0.08804149 0.11385704
000180 5b 37 a9 3d 60 64 51 3d 58 bc 99 3c 26 24 52 3c
       0.08262511 0.051121116 0.018766567 0.012826001
000190 49 d9 80 3c 10 47 0d be f8 f1 98 3d a4 13 be be
       0.01572861 -0.1379664 0.07468027 -0.3712436
0001a0 bf 06 2b 3e 91 b0 ae 3d b1 1a 38 3d b2 74 4d bd
       0.16701792 0.08529771 0.04494733 -0.050160117
0001b0 2c db 61 bc fd f0 c7 3d 12 95 31 bd 62 5a 7d 3e
       -0.013785165 0.09762762 -0.043355055 0.2474151
0001c0 94 d5 a8 bd 2b a1 32 be d5 81 76 bd 19 fb 31 be
       -0.08243862 -0.17444293 -0.06018241 -0.17380942
0001d0 63 26 a7 bc 88 b6 66 be e6 61 e7 3d 4e bd 08 be
       -0.020404046 -0.22530568 0.112979695 -0.13353464
0001e0 94 cc 2c bd 19 5a b9 bc fe 47 ab bd aa f6 22 bd
       -0.04218729 -0.02262597 -0.08363341 -0.03978602
0001f0 ec 96 96 bc 20 0b d1 bb 63 9d 09 bd f4 cb 81 3d
       -0.018382512 -0.0063795 -0.03359736 0.06337729
000200 f0 24 aa 3d 72 58 ee 3c 27 ca 1c bc ba 86 b7 3d
       0.083078265 0.029094908 -0.009569681 0.08961244
000210 82 fb 1c 3b 16 c3 cb bb 5b 4f cf 3b 64 c6 2d 3c
       0.0023953621 -0.0062183244 0.0063265986 0.010606382
000220 7f 31 16 3d 86 16 6f bd 22 bc 6c 3d 77 b0 20 be
       0.036668297 -0.05837109 0.057796605 -0.15692316
000230 e1 3e af 3c 11 6b d6 bd a7 77 cf bd 40 ae f6 bd
       0.021392288 -0.1046964 -0.10130244 -0.12044954
000240 73 e5 3a bd 9d 01 ac bd 0a c8 d2 bc 34 e9 c8 bd
       -0.045628976 -0.08398745 -0.025730152 -0.09810105
000250 d1 f7 aa be bf 6c 99 be 1b 49 35 be 69 5b 1c be
       -0.33392194 -0.2996578 -0.17703669 -0.15269245
000260 8b 65 72 3d 93 e1 b2 bc c9 aa e9 3c 08 75 95 bd
       0.05917887 -0.021836078 0.02852382 -0.072977126
000270 bc 1f 85 3d 38 87 98 3d d8 5b 1d bc 35 bc ea bd
       0.065001935 0.07447666 -0.009604417 -0.11461679
000280 03 db 68 be 68 b5 66 be 1f 19 2c bd 5c 39 93 3d
       -0.22739796 -0.22530138 -0.042016145 0.07188675
000290 4e a0 ec bb 16 19 52 bc 9e a2 46 3c 8f c4 3f 3d
       -0.0072212582 -0.012823364 0.012123732 0.046818312
0002a0 79 93 cd bd 37 58 df bd c3 42 81 be c0 82 3c be
       -0.10037894 -0.109054975 -0.25246248 -0.18409252
0002b0 5e 20 ed bb 79 ce 14 be 00 c2 00 3c cd cc 1d be
       -0.0072365245 -0.14531888 0.007858753 -0.15410157
0002c0 94 48 bc 3b 54 7f c2 3a 43 0f 69 bd ec 24 9d bd
       0.0057459567 0.0014838972 -0.05689932 -0.07673058
0002d0 91 b5 8e 3c a4 e9 94 3c 4b 87 3e be cb 81 37 be
       0.017420562 0.018177815 -0.18606298 -0.17920606
0002e0 2b 15 79 bc f6 8c 85 bd 50 58 33 3c 03 1e c5 bd
       -0.015202801 -0.06521027 0.010946348 -0.09624865
0002f0 8e 92 99 3d 0b dd c1 bd 21 a6 18 bd cb 15 00 be
       0.07498656 -0.09465989 -0.037267808 -0.12508313
000300 06 56 1e bc 5b 09 b8 bc f1 07 b1 3c b8 aa 0a 3d
       -0.009664064 -0.022465399 0.021610232 0.033854216
000310 40 55 10 3c fe 62 1e 3c 31 af 4a 3b f9 1d 26 3c
       0.008809388 0.009667156 0.0030927176 0.010138982
000320 a8 70 1a bd 76 26 15 bc 66 3d d8 3b e0 ab 88 3b
       -0.037705094 -0.009103408 0.006599116 0.0041708797
000330 52 34 4f be 4c 0c ad be d6 10 bb bb b7 42 8a bd
       -0.20234802 -0.33798444 -0.005708794 -0.06751006
000340 34 41 a0 bd dd 2a 0d be 03 fb c8 3c 67 45 30 bd
       -0.078249365 -0.13785882 0.024533754 -0.043034937
000350 8c 44 40 bc 28 d3 7c bc de e3 73 bd e8 50 87 bd
       -0.011735093 -0.015431203 -0.059543483 -0.066072285
000360 b7 10 1a bd df 2c e9 3c 88 e4 35 bd 75 25 d5 bc
       -0.037613597 0.028463779 -0.044407398 -0.026018837
000370 cf 04 e3 bc 49 53 06 be 7a 2c 89 3a 15 c0 8f bd
       -0.027712254 -0.13117708 0.0010465526 -0.070190586
000380 b4 60 0e bd ad b0 49 bd eb a6 04 3d 18 6a 9a 3c
       -0.034760192 -0.049240757 0.032385748 0.018849418
000390 37 76 e6 3c 06 c4 9c 3c bb 16 d6 3b a7 30 14 bc
       0.028132541 0.01913644 0.0065334714 -0.009044803
0003a0 9e 75 57 be ab 6e 32 be f4 73 83 3c 8b a5 41 bc
       -0.21040961 -0.17425029 0.016046502 -0.011819254
0003b0 4c 32 98 bc cf 8b 86 bd 08 cc 32 bd 01 15 b6 bc
       -0.01857867 -0.06569635 -0.04365161 -0.022226812
0003c0 cc 3c 23 bd 45 f2 cb bc e6 65 9a bd 7d 1f 99 bd
       -0.039852902 -0.024895797 -0.07538967 -0.07476709
0003d0 75 f6 d3 be 15 f0 b6 be a2 a6 2c bf b3 38 18 bf
       -0.4139897 -0.35730043 -0.6744176 -0.59461516
0003e0 5f 1c 02 bd 1e bd 77 bd 52 46 0d bd c0 e4 b0 3b
       -0.031765338 -0.06048309 -0.03449089 0.005398363
0003f0 bb b5 81 3c a6 ab d5 bc 6b e6 c6 bc cb 39 be bd
       0.015833726 -0.026082825 -0.024279794 -0.09288367

module.layer2.0.bias f4 [32]
000000 47 59 40 39 53 c1 33 39 2c 68 e2 b8 06 a7 75 b8
       0.00018343805 0.00017142789 -0.00010795923 -5.8568105e-05
000010 af 22 0d 37 be 3c e2 b7 9d 52 6e b9 ad 44 3b 39
       8.41233e-06 -2.6969585e-05 -0.00022728225 0.00017859293
000020 0d 32 af b9 69 cc d4 36 8e dc 01 39 72 61 99 b8
       -0.00033415892 6.341889e-06 0.00012384562 -7.313759e-05
000030 52 24 5e b8 99 a6 04 3a 30 02 f9 b8 96 36 8f 38
       -5.296275e-05 0.00050602254 -0.00011873653 6.828939e-05
000040 cc dc ae b9 45 76 08 39 bb ed ca b8 05 d8 74 38
       -0.00033352373 0.0001301403 -9.676391e-05 5.8375317e-05
000050 0b 26 9c b9 27 99 a1 36 08 56 4f b9 91 94 22 b9
       -0.00029782983 4.816003e-06 -0.00019773107 -0.00015504869
000060 3f 14 8b 38 21 de d1 39 73 fc 3a 39 c7 65 c4 b9
       6.6318076e-05 0.00040029085 0.00017832387 -0.00037459863
000070 15 c6 3f b8 8e 08 6a b8 f7 2a 0c 37 eb 74 21 39
       -4.5722427e-05 -5.5797915e-05 8.354654e-06 0.00015397712

module.layer2.1.weight f4 [32]
000000 97 cd 0d 3f eb 07 b5 3e 14 16 5b 3f c2 fc 49 3f
       0.5539183 0.35357603 0.85580564 0.789013
000010 0e 64 48 3f c6 7a 44 3f 99 f8 18 3f 23 b4 57 3f
       0.7827767 0.7674984 0.5975433 0.8425924
000020 70 e5 5a 3f 68 4c 49 3f e9 be 63 3f ee 67 1a 3f
       0.85506344 0.7863221 0.8896318 0.60314834
000030 6c 2b 42 3f d9 bf 13 3f ae 66 2f 3f 4f 5f 30 3f
       0.75847507 0.5771461 0.6851605 0.6889543
000040 e8 57 46 3f 54 a4 2c 3f c5 8d 44 3f 84 31 73 3f
       0.77477884 0.67438245 0.76778823 0.9499743
000050 bb 41 18 3f 29 6b 56 3f 8f 15 32 3f dd e7 53 3f
       0.59475297 0.83757263 0.69564146 0.8277567
000060 44 27 73 3f 85 ab 4e 3f f2 40 51 3f ff aa 78 3f
       0.9498179 0.8073047 0.81739724 0.9713592
000070 fd 33 4e 3f a4 90 23 3f 06 47 38 3f 9c 8f e7 3e
       0.8054808 0.6389258 0.71983373 0.45226753

module.layer2.1.bias f4 [32]
000000 16 db f3 be 35 3b c3 be bb 40 f1 be 53 34 fb be
       -0.47628087 -0.3813111 -0.47119698 -0.49063358
000010 a2 cc 06 bf 0e d7 00 bf 81 9e 0b bf 3d 2f 16 bf
       -0.52655995 -0.5032815 -0.5453873 -0.5866583
000020 b3 c8 15 bf 60 9c 16 bf ef cb 06 bf 6e 2c f7 be
       -0.5850937 -0.5883236 -0.5265493 -0.48276085
000030 db bc 0d bf 17 90 c1 be 6d 24 fc be 30 24 dc be
       -0.55366296 -0.37805244 -0.4924654 -0.4299636
000040 88 c7 eb be fa 00 e0 be 01 7f 0a bf e8 14 1a bf
       -0.46050668 -0.43750745 -0.5410004 -0.6018815
000050 c6 a4 df be 82 73 e0 be bc 7f f8 be bc 94 1a bf
       -0.436804 -0.43838125 -0.48534954 -0.603832
000060 1b f0 29 bf 5a e1 01 bf 24 ff 11 bf 1e e3 27 bf
       -0.66381997 -0.50734484 -0.5702994 -0.6558093
000070 11 dc ff be 83 5f f0 be b6 ab ef be 55 e5 c9 be
       -0.49972585 -0.4694787 -0.46810693 -0.3943278

module.layer2.1.running_mean f4 [32]
000000 fe e1 85 be 22 a6 6c bd 93 ef 96 be 22 e3 81 be
       -0.2614898 -0.057775624 -0.29479656 -0.253686
000010 c3 a7 90 be 52 e0 c1 be dd 8a 71 be 14 aa ac be
       -0.28252992 -0.37866455 -0.23588128 -0.3372351
000020 7d af c0 be 75 bb e0 be 2c d8 a9 be 2f e0 93 be
       -0.37633887 -0.43893018 -0.3317274 -0.28881976
000030 a9 60 58 be 84 0e 72 be f4 52 87 be 40 35 9b be
       -0.21130623 -0.2363835 -0.26430476 -0.30314064
000040 78 f8 c0 be e9 82 96 be 51 4d ab be dc 9b e6 be
       -0.37689567 -0.29396752 -0.33457425 -0.45040786
000050 1d 64 8b be 62 f9 73 be 7c 09 75 be 7e e5 bd be
       -0.27224818 -0.238256 -0.23929399 -0.3708915
000060 01 f6 09 bf 61 30 c5 be a1 ad fa be 5e 51 e0 be
       -0.53891 -0.38513473 -0.48960593 -0.43812078
000070 36 80 f9 be 80 0f 9f be 3e 83 c4 be 05 10 14 be
       -0.4873063 -0.31066513 -0.3838138 -0.14459236

module.layer2.1.running_var f4 [32]
000000 ed a4 ba 3d 1e 08 7d 3d 56 ad 59 3e 20 17 c2 3d
       0.09113488 0.06177532 0.21257529 0.09477067
000010 33 f1 e7 3d 5b 9e 8e 3e f1 74 b2 3d 6e 45 6b 3e
       0.11325302 0.2785519 0.08713711 0.22975704
000020 9d e2 3a 3e df 19 4f 3e 6b b6 34 3e 55 28 e1 3d
       0.18250509 0.20224713 0.17647712 0.10994021
000030 a7 68 3d 3e 54 af aa 3d 62 12 36 3e db 87 3c 3e
       0.18496953 0.083342224 0.1778045 0.184112
000040 53 cc 8c 3e 9a 1c 0b 3e d8 99 18 3e 04 6f a6 3e
       0.27499637 0.1358513 0.14902437 0.32506573
000050 30 d3 fb 3d a7 39 21 3e c9 47 3d 3e b7 fb 50 3e
       0.1229614 0.15744649 0.18484415 0.20408522
000060 68 49 c7 3e 7d 19 a3 3e 83 fa 80 3e a5 c0 71 3e
       0.38923192 0.31855384 0.25191125 0.23608644
000070 71 9a cf 3e 09 92 d2 3d 0e 72 6a 3e 20 73 80 3d
       0.40547517 0.1028176 0.22895071 0.06271958

module.layer3.0.weight f4 [64, 32, 2, 2]
000000 fe 37 68 bd ee a1 a3 bb 09 15 04 bd 7b 3d 85 bc
       -0.056694023 -0.0049936688 -0.032246623 -0.016264668
000010 a0 0b d3 bc 40 4a 0c bc d5 6e 29 bd ee ec 16 bd
       -0.02576238 -0.008562624 -0.041365463 -0.036847048
000020 1e 92 a7 3d b1 20 8e bc 1a 73 84 3d 9d 79 06 3e
       0.081821665 -0.017349573 0.064672664 0.1313233
000030 eb af 93 bd d4 2e 13 be 15 34 e3 3d 4d e2 69 3d
       -0.07211288 -0.14373332 0.11093918 0.057100583
000040 31 bc a4 bd 57 d3 b2 bd b3 1e db 3d 0e cc 1b 3e
       -0.08043707 -0.08731716 0.10699215 0.1521456
000050 f4 2d 41 3c 0e 5a 46 3d cb af ef bd e0 55 c4 3c
       0.011790741 0.048425727 -0.11703452 0.02396673
000060 db 81 46 3d 04 77 8a bb 10 1d 59 bd c3 93 1e 3d
       0.048463684 -0.0042256135 -0.05300623 0.038715135
000070 20 bb fa bd 12 94 13 3c 8b 6c 40 be 28 ee 33 be
       -0.122427225 0.009007471 -0.18791406 -0.17571318
000080 78 5f 0b 3d 19 68 42 3e 30 30 c5 bd b3 e9 5c 3c
       0.034026593 0.18985023 -0.09628332 0.013483453
000090 36 f1 d3 3c fc 36 b7 3c 9d ba 82 bc 4e 9d a3 3d
       0.025871854 0.022365086 -0.015958125 0.07988988
0000a0 9a 28 d3 bd 7e aa 21 be 80 8b 75 bc d3 2d 01 be
       -0.103104785 -0.15787694 -0.014986873 -0.12615137
0000b0 2d f8 0a bd 26 42 8b bd dc 6f bf bd d2 a9 15 bd
       -0.033928085 -0.06799726 -0.09347507 -0.036538906
0000c0 b0 05 cd bd b4 7c 05 bd f0 27 c3 bc b7 e8 25 3d
       -0.100108504 -0.03258963 -0.023822755 0.040505137
0000d0 d8 62 8d bc e6 c2 64 bd c6 6e 7e bc 76 50 ee bb
       -0.017259046 -0.055849932 -0.01552934 -0.0072727753
0000e0 37 d5 e8 3d fc 91 90 3c b3 e0 c5 bc 4e 5f 42 bd
       0.113687925 0.017647736 -0.024154996 -0.04745417
0000f0 ce bc 4f 3d 21 0d 00 3d 0d d3 01 bc 83 cf a6 3d
       0.050717168 0.03126252 -0.007923854 0.081450485
000100 43 7a d2 3c 2d 83 4c 3c e8 8b 6b bd 62 fd 3d bd
       0.025693065 0.012482447 -0.057506472 -0.046384223
000110 1f 44 ba bd a9 82 e8 3c d8 e3 ab bd 65 ad 5a bc
       -0.09095024 0.028382616 -0.08393067 -0.013347005
000120 d7 2f 34 be cf bb c6 bd 90 48 92 3b db eb 1a 3d
       -0.17596374 -0.097037904 0.0044642165 0.037822586
000130 fe 5e 21 be bd e9 73 be 7c 8a ac bc 5b d1 15 be
       -0.15758893 -0.23819633 -0.021062128 -0.14630644
000140 9a f4 d9 bd d7 4e 2c 3d b2 d9 03 3c f6 8e 73 bd
       -0.10642357 0.042067375 0.008047508 -0.05946251
000150 8e 75 03 3d f7 6e ca 3d 70 f9 8c 3c 17 3e d0 bc
       0.03209453 0.09884446 0.017208785 -0.025420232
000160 9c 4d 8a bc 8a 9b d2 3c 25 51 44 bc 7f 7f 3f 3a
       -0.01688271 0.025708932 -0.011982237 0.000730507
000170 0d e0 3a bc bc 09 dd 3c c0 4a 5a 3c 8f 76 46 bc
       -0.011405957 0.02698218 0.013323486 -0.0121132275
000180 5b 48 70 bd 36 81 67 3c 21 47 b4 3d 00 78 b8 bc
       -0.058662754 0.014129927 0.08802629 -0.022518158
000190 eb ce d7 3c ad e8 88 3d 51 bf 78 be 6b a4 f5 bd
       0.026343783 0.066850044 -0.24291731 -0.11994251
0001a0 64 9b a4 3c 87 54 52 bc 17 8f ce bb 1e ed fe 3b
       0.020093627 -0.012837536 -0.0063036787 0.0077797314
0001b0 50 e1 77 bd 0e f2 7b 3c 7e d2 76 bd 85 47 90 bd
       -0.06051761 0.015377535 -0.060259335 -0.07044891
0001c0 cf d6 ca bd a1 b1 c6 3d cc 85 27 3b f7 0f 83 bb
       -0.09904253 0.09701849 0.0025561927 -0.003999706
0001d0 b2 a6 4f bd dc 65 fd 3c 8c 9d a4 bc 97 97 1a bd
       -0.050696082 0.03093236 -0.020094655 -0.037742224
0001e0 f1 29 21 be a3 72 91 bd a0 36 fd bc 2a c3 c7 bc
       -0.15738656 -0.07101943 -0.030909836 -0.024385054
0001f0 0d a4 f1 3b d3 a1 28 3c b7 4a 19 3d 81 13 2e bd
       0.0073742927 0.010292488 0.03742477 -0.04249907
000200 27 bb 39 bb e4 a1 9a bd 4a a9 13 bc 11 b5 7c bd
       -0.0028340311 -0.075504094 -0.00901253 -0.061696116
000210 60 87 a1 bd d0 99 8c bd 58 89 1b 3c 6b f0 26 bd
       -0.07887149 -0.06865275 0.0094931945 -0.040756624
000220 7c e2 65 bd 6a 69 0f bc b4 4e a1 bd 19 8b 92 3c
       -0.056124195 -0.00875316 -0.078763396 0.017888593
000230 36 cd 2a bd 1e 93 d1 3c 60 7a ac bd 42 7a 10 bc
       -0.04169961 0.025582846 -0.08421779 -0.008818211
000240 c3 3a eb bd 34 58 1a 3d 53 4c ba bd 58 77 4b bd
       -0.11485817 0.037681773 -0.09096589 -0.049674362
000250 d5 1d e7 bc 4d 8e 89 3a 10 3f 2a bd 66 7b 22 3d
       -0.028212467 0.001049468 -0.041564047 0.039668463
000260 2f 9e ac bd 4f 23 8f bd b7 0a c4 bc 0a 70 70 bd
       -0.084286086 -0.069891565 -0.02393089 -0.0587006
000270 57 8c 93 bd e7 ed 3e 3c 3e 76 fd 3c 49 58 51 3d
       -0.07204502 0.0116534 0.030940171 0.051109586
000280 81 90 2d 3e a9 8a 16 be dd 3a ec 3a 25 e1 a4 bd
       0.16949655 -0.14701332 0.0018022914 -0.080507554
000290 55 75 10 3e ad b7 2b be 83 d5 03 3e 46 ac ae bd
       0.14107259 -0.16769286 0.12874417 -0.08528952
0002a0 95 42 03 3d 09 cc d6 bc 1e 30 5d bd bf 14 55 bc
       0.03204592 -0.026220338 -0.054000966 -0.013005435
0002b0 ea d1 11 3d 81 ee 0c be 3f 15 f2 3c 87 d9 a2 bc
       0.03560058 -0.13762857 0.029551147 -0.019879116
0002c0 2d f4 bc bd e0 52 ba bd 43 f6 52 bd f1 1e 57 bc
       -0.0922626 -0.090978384 -0.051504385 -0.013129936
0002d0 20 64 78 3d 85 25 bc bd fa f0 91 3d ab af 51 bd
       0.06064236 -0.09186844 0.07126041 -0.05119292
0002e0 9e 11 a3 3c 36 f5 40 3d 64 69 55 bd 57 b7 58 3d
       0.019905861 0.04710885 -0.05210246 0.05290922
0002f0 76 49 6e bd a8 ac 89 3c ca de 88 3c ac 07 98 3d
       -0.058175527 0.016805962 0.016707797 0.07423338
000300 4c 04 58 bd fb b0 f4 3c d4 46 47 ba 50 7e 3b 3d
       -0.052738473 0.029869547 -0.0007601802 0.045774758
000310 7e a0 97 bb a7 01 5f bd af 4b d9 bd 46 f3 e1 bd
       -0.0046272865 -0.054444935 -0.106101386 -0.11032729
000320 0a ed 08 3d 2f 4c ed bd 77 be 0a 3e 58 c3 e2 bd
       0.033429183 -0.115867965 0.13549219 -0.11072415
000330 c9 d7 3f 3c 7f fb c0 bd 78 79 96 3d b8 3b fc bc
       0.011709162 -0.09422969 0.07347387 -0.030790195
000340 a2 06 2a bc c3 ef 59 bd 21 b0 9d bd 95 40 55 bd
       -0.010377558 -0.05320717 -0.076996095 -0.052063543
000350 64 b1 26 3d 82 23 41 3e b2 12 97 3c 0f dc fd 3d
       0.040696517 0.18861201 0.018441532 0.123954885
000360 90 8b 36 bc a9 f0 60 3c f0 d6 90 bc 38 71 cc 3b
       -0.011141673 0.013729253 -0.017680615 0.0062390827
000370 2b 8e 14 3d dd a1 1c be 5f fc 7b 3d c4 61 ab bd
       0.036268394 -0.15296121 0.061519977 -0.08368257
000380 fa 45 a6 bd b8 39 0f 3d 95 1e c8 bd 94 be 01 bc
       -0.08118816 0.034967154 -0.09771458 -0.0079189725
000390 2a dd 6e bc f6 ec a6 3c 23 d4 2a bd 38 51 4a bb
       -0.014579097 0.020376664 -0.041706216 -0.0030871164
0003a0 64 9e ea 3d cd ef 2b be 80 35 cf 3d d6 ba ae bd
       0.11455992 -0.16790695 0.10117626 -0.0853173
0003b0 4f 5b fb 3c 8a 3d e2 bd 9c 6f 29 3e 06 c8 d0 bd
       0.030683188 -0.11046894 0.16546482 -0.101944014
0003c0 9f f3 a2 3d 6b 31 28 be c1 73 83 bd 74 90 b7 bd
       0.07956623 -0.16425101 -0.06418563 -0.08963099
0003d0 90 46 d1 3d 08 a7 da bd eb 64 4f 3d f5 a3 8f bd
       0.10218537 -0.1067639 0.050633352 -0.07013694
0003e0 03 91 b6 3d bb 5d 8f bd 50 f0 4b 3d c6 5c 63 bd
       0.089143775 -0.070002995 0.049789727 -0.055508398
0003f0 45 4f bc bd 4b a7 a0 bd 79 7e f6 3c 7c c8 ca bc
       -0.09194807 -0.078444086 0.030089604 -0.024753802

module.layer3.0.bias f4 [64]
000000 d5 9a 1f 39 b7 88 9d b9 61 5d 28 3a 24 de c8 b8
       0.00015221101 -0.00030047234 0.0006422606 -9.57812e-05
000010 91 9a 54 ba 19 b3 80 b8 51 69 b3 b9 9c 64 95 39
       -0.00081101904 -6.136875e-05 -0.00034220007 0.00028494454
000020 11 f2 22 ba a9 ae b3 39 ee e4 61 b9 f5 9a b6 39
       -0.000621588 0.00034271672 -0.00021542955 0.00034829197
000030 93 62 9f b8 c5 90 4a 39 97 54 3a b9 4f 2f aa 39
       -7.600072e-05 0.00019318152 -0.00017769854 0.00032460174
000040 8c ac d8 39 fb f5 fe b8 cf d4 f1 b8 78 41 92 39
       0.00041327288 -0.00012157481 -0.00011531414 0.00027896068
000050 29 1e ac b9 d3 c1 e2 b7 5a 95 5d b5 e8 bb 25 39
       -0.00032828868 -2.7031556e-05 -8.254625e-07 0.00015805627
000060 66 0f b0 b9 94 20 86 b9 59 cf 99 b9 59 2f a0 38
       -0.0003358081 -0.00025582744 -0.0002933692 7.638214e-05
000070 6d 3f ee b7 5c 2b c5 38 31 17 15 ba 8e fa 83 39
       -2.8401346e-05 9.401768e-05 -0.0005687355 0.00025172945
000080 c5 bc 25 b9 9d ec 17 3a 15 aa b1 39 b5 b5 8e b9
       -0.00015805948 0.0005795451 0.00033886792 -0.00027219733
000090 69 13 b5 b8 5e d1 23 39 2c 19 ce b8 f9 fa d1 b8
       -8.634368e-05 0.00015622887 -9.827534e-05 -0.00010012644
0000a0 2b f8 1c ba 7d 53 99 b8 2a 6e 40 3a 08 8d 4b ba
       -0.00059879076 -7.3111594e-05 0.00073406345 -0.0007764851
0000b0 69 2f 7d b9 f1 78 52 3a 5c 3a ab 38 35 24 5e 3a
       -0.00024145622 0.0008028886 8.164786e-05 0.0008474023
0000c0 bd a3 f3 b9 5e 44 e1 39 4e 65 c9 39 b0 0f 08 38
       -0.00046470566 0.00042966282 0.00038413185 3.2439537e-05
0000d0 4b 8c c1 39 59 2f 27 39 1a d7 cd 39 8a e7 80 b8
       0.00036916355 0.00015944 0.0003926091 -6.146643e-05
0000e0 81 16 33 bb 12 06 24 b9 5b fa 07 3a 3a 4f 90 b9
       -0.0027326646 -0.0001564252 0.0005187147 -0.0002752485
0000f0 a8 69 58 b8 2a ab 59 3a c2 5e c7 b9 e5 fa 96 b8
       -5.1596813e-05 0.00083033985 -0.00038026838 -7.19929e-05

module.layer3.1.weight f4 [64]
000000 4b 46 89 3f b8 2d 96 3f 01 23 9d 3f bf 20 91 3f
       1.0724577 1.1732702 1.2276307 1.1338118
000010 a4 84 a0 3f 17 3d 91 3f 14 3c a6 3f 0b 1f 93 3f
       1.2540479 1.1346768 1.2987084 1.1493849
000020 59 a1 85 3f 52 3f 9d 3f e7 35 84 3f 45 7c 93 3f
       1.0439864 1.2284949 1.032895 1.1522299
000030 b1 a4 a2 3f a5 76 93 3f 49 b9 9a 3f 41 6a 6d 3f
       1.270651 1.1520582 1.2087795 0.92740256
000040 30 93 99 3f 5b e8 8d 3f 84 41 94 3f df 88 a3 3f
       1.1998043 1.1086534 1.1582494 1.2776145
000050 42 32 6d 3f 07 b6 9a 3f 13 24 9e 3f 5f 24 7c 3f
       0.9265481 1.20868 1.2354759 0.98493
000060 8e 8b 8b 3f 78 b0 9a 3f cc 09 90 3f 8e 0c 9d 3f
       1.0901964 1.2085104 1.125299 1.2269456
000070 4a de 8b 3f fe 21 74 3f 95 cd af 3f 0f 69 7d 3f
       1.0927212 0.9536437 1.3734614 0.9898843
000080 58 47 ae 3f 8d c8 ac 3f 8b 6b 99 3f fd 21 95 3f
       1.3615522 1.3498703 1.1985945 1.1650997
000090 b4 a4 84 3f c1 8d 96 3f 97 44 a7 3f 51 0b a3 3f
       1.0362763 1.176201 1.3067807 1.2737828
0000a0 b5 fc b4 3f 81 63 a5 3f 8c 65 a5 3f 9e 3f a1 3f
       1.413962 1.2920991 1.2921615 1.259754
0000b0 b5 4c a9 3f 79 c4 73 3f 12 8d 79 3f f0 a5 7b 3f
       1.3226534 0.9522167 0.9748088 0.98300076
0000c0 3e 38 9b 3f d2 cb a4 3f 05 c2 a3 3f c8 88 71 3f
       1.2126539 1.2874701 1.2793585 0.94349337
0000d0 bf da a5 3f 0e 6f 81 3f 20 ab a3 3f 2b f4 85 3f
       1.2957381 1.0112016 1.2786598 1.0465139
0000e0 18 ad 56 3f 00 d9 60 3f dd 3e 96 3f 4f e7 b3 3f
       0.8385787 0.87831116 1.1737934 1.4054965
0000f0 1d 1e 6d 3f a9 8b 97 3f f5 d5 9e 3f 3f 54 b7 3f
       0.92624074 1.1839496 1.2409045 1.4322585

module.layer3.1.bias f4 [64]
000000 79 d0 f0 be f6 cd 37 bf fb 47 4b bf c1 d9 18 bf
       -0.47034052 -0.71798646 -0.7940671 -0.59707266
000010 be 78 2a bf 6c 62 4c bf 05 61 26 bf 70 32 16 bf
       -0.6659049 -0.7983768 -0.6499179 -0.5867071
000020 a8 24 0f bf 4e f2 36 bf b5 73 07 bf 31 88 06 bf
       -0.5591531 -0.7146348 -0.5291093 -0.5255156
000030 2f a2 5c bf 12 36 66 bf f2 cf 19 bf 65 24 bf be
       -0.8618497 -0.89926255 -0.60082924 -0.37332454
000040 f8 19 26 bf f4 3c 56 bf b6 d6 3e bf 29 21 59 bf
       -0.64883375 -0.8368676 -0.7454637 -0.84816223
000050 52 78 df be 5b b7 17 bf 94 f8 2d bf 3c b4 96 bf
       -0.43646485 -0.59264153 -0.67957425 -1.1773753
000060 27 45 89 bf 7c aa 29 bf 56 19 23 bf 6d df 48 bf
       -1.0724229 -0.66275764 -0.63710535 -0.7846592
000070 57 69 01 bf ef 4a cb be d7 9e 46 bf e6 d9 f2 be
       -0.5055136 -0.39705607 -0.7758612 -0.47431868
000080 e0 3b 39 bf ca 98 51 bf c1 b0 29 bf a1 fa 15 bf
       -0.72356987 -0.8187376 -0.6628533 -0.58585554
000090 c1 c4 03 bf 27 e9 71 bf 41 4b 5e bf 59 0d 34 bf
       -0.514721 -0.9449639 -0.8683358 -0.70332867
0000a0 9a b9 3b bf 85 5c 57 bf cd 88 43 bf a4 fc 2d bf
       -0.7333008 -0.8412555 -0.76380616 -0.67963624
0000b0 0e 7b 32 bf 50 b2 fc be 5c a2 f1 be 43 b6 d8 be
       -0.69719017 -0.49354792 -0.47194183 -0.42326555
0000c0 71 02 57 bf 0d 2c 54 bf bd 99 15 bf 01 00 da be
       -0.839881 -0.82879716 -0.5843771 -0.42578128
0000d0 42 86 32 bf 92 13 de be 20 42 33 bf 79 3c 1c bf
       -0.6973611 -0.43374306 -0.70022774 -0.61029774
0000e0 1d a5 a2 be e6 cf bc be ee 38 07 bf 73 c8 58 bf
       -0.31766596 -0.36877364 -0.5282124 -0.8468086
0000f0 21 ab 13 bf 2a 61 01 bf 6c 9f 53 bf 50 63 72 bf
       -0.57682997 -0.50538886 -0.82665133 -0.9468279

module.layer3.1.running_mean f4 [64]
000000 ec 5f 8a bc 8c 3d 4d bc bb 23 75 bc c3 af aa bc
       -0.016891442 -0.012526881 -0.014962132 -0.020835763
000010 a7 2c 89 bc bc a8 56 bc 3c 5c 9b bc 89 81 6c bc
       -0.016744925 -0.013101753 -0.01896488 -0.01443518
000020 54 88 81 bc 08 62 85 bc 7f dc 6e bc 61 72 93 bc
       -0.015812077 -0.016282097 -0.014578938 -0.017998876
000030 54 52 92 bc a9 6c 5b bc a3 d0 8f bc 14 be 4f bc
       -0.017861523 -0.013392606 -0.01755554 -0.0126795955
000040 12 16 83 bc ba 68 53 bc 4c 01 5d bc ef da 88 bc
       -0.016001735 -0.012903387 -0.013489079 -0.016705958
000050 bd fd 7b bc 2e b8 7d bc f9 7c 8b bc 50 6a 22 bc
       -0.01538032 -0.015485806 -0.017027365 -0.009913042
000060 f4 1d 63 bc 23 9a a1 bc cb 8f 70 bc 13 0b 97 bc
       -0.013862122 -0.019726818 -0.01468272 -0.018437898
000070 47 9b 8e bc 42 73 58 bc 89 f4 a3 bc f4 31 7b bc
       -0.017408026 -0.013211073 -0.020014064 -0.015331734
000080 bb d9 a6 bc 76 1c 85 bc c0 d7 82 bc f3 dc 87 bc
       -0.020367494 -0.016248923 -0.015972018 -0.016584849
000090 75 67 92 bc 49 e7 6c bc b5 f0 81 bc c4 88 7a bc
       -0.017871598 -0.01445944 -0.015861848 -0.0152913965
0000a0 1f 2d b0 bc 17 7e 6e bc 14 45 7a bc b5 ca 95 bc
       -0.02150589 -0.014556429 -0.015275259 -0.018285135
0000b0 fa 2e 92 bc ae 32 83 bc 7c bf 81 bc 5d e0 89 bc
       -0.017844666 -0.016015377 -0.015838377 -0.016830618
0000c0 7d d1 88 bc b3 ec 94 bc cf ba 85 bc 4d 47 85 bc
       -0.016701454 -0.018179273 -0.016324429 -0.01626935
0000d0 9a 7a 83 bc c7 8d 68 bc 5a e2 98 bc 9f ea 48 bc
       -0.016049672 -0.014193959 -0.01866262 -0.012262969
0000e0 c4 50 80 bc 79 84 81 bc 0d 7b 64 bc 11 fe 97 bc
       -0.015663512 -0.015810238 -0.013945353 -0.018553765
0000f0 e7 86 8c bc 73 dc 6d bc 94 97 5a bc 73 b5 97 bc
       -0.01715417 -0.014517891 -0.013341803 -0.018519139

module.layer3.1.running_var f4 [64]
000000 0b 83 c9 3a 98 f4 88 3a 76 0f d1 3a 7b ec 02 3b
       0.0015374137 0.0010448871 0.0015950042 0.001997738
000010 bd 01 c8 3a 77 1b 84 3a 8b 0c d1 3a 44 05 b2 3a
       0.0015259307 0.0010078986 0.0015949173 0.0013581892
000020 08 98 d0 3a 39 e6 c6 3a 89 ac 96 3a a1 00 c0 3a
       0.001591445 0.0015174813 0.0011495511 0.0014648625
000030 fc ee c5 3a 35 9f 8d 3a ae 1c ce 3a be 6f 96 3a
       0.001510113 0.0010804894 0.00157251 0.0011477394
000040 34 5a c7 3a 84 57 c0 3a bf 58 d7 3a a5 61 f7 3a
       0.0015209378 0.0014674519 0.0016429647 0.0018873705
000050 56 00 9a 3a 7d 84 cd 3a a4 ec 01 3b fa 9b 8b 3a
       0.0011749368 0.0015679743 0.0019824887 0.0010651343
000060 29 9c a1 3a 6c 10 e2 3a 88 8a a4 3a 5b b3 e2 3a
       0.0012329865 0.0017247326 0.0012553493 0.0017295884
000070 ed 0a d5 3a d4 b9 91 3a 33 87 e4 3a d4 1d c6 3a
       0.0016253866 0.0011118003 0.0017435312 0.0015115091
000080 8c a5 d4 3a ce 53 bd 3a 31 ea e6 3a be bc cf 3a
       0.0016223653 0.0014444531 0.0017617402 0.0015849096
000090 6f 37 e5 3a fe e7 93 3a 3c c0 b4 3a 37 95 e4 3a
       0.0017487834 0.0011284349 0.00137902 0.0017439489
0000a0 19 3d 05 3b e9 36 ce 3a 8b 6f da 3a b9 37 e0 3a
       0.0020330606 0.0015732917 0.0016665322 0.001710645
0000b0 6a d9 e7 3a d2 b4 97 3a 20 df b3 3a 2f 1a c1 3a
       0.0017688696 0.0011574274 0.0013723113 0.0014732535
0000c0 28 df af 3a 04 32 c6 3a 45 b3 d4 3a ac e7 c7 3a
       0.0013417946 0.0015121107 0.0016227743 0.0015251539
0000d0 d1 0c d0 3a b1 c4 a7 3a 1d 84 c3 3a a8 03 a5 3a
       0.001587296 0.0012799707 0.0014916692 0.0012589591
0000e0 77 c5 91 3a dd f0 c1 3a 7f 31 be 3a ad 9b dd 3a
       0.0011121471 0.0014796514 0.0014510601 0.0016907357
0000f0 c4 d9 9d 3a 31 28 ca 3a df 84 c4 3a e5 2a d5 3a
       0.0012043049 0.0015423355 0.0014993212 0.0016263394

module.fc.weight f4 [1, 104000]
000000 1a a6 06 bb 49 09 e1 3c ab a2 95 bb ef 4a 2a 3b
       -0.0020545782 0.027470248 -0.0045665107 0.0025984605
000010 a5 61 8e bc ba eb c0 ba 8f f4 2f 3c 11 c9 8c ba
       -0.017380545 -0.001471869 0.01073946 -0.0010741075
000020 a3 c0 23 bc 8e ea 7a bc dd 80 9e 3c 42 a9 be bc
       -0.009994659 -0.015314711 0.019348556 -0.023274068
000030 6b 0f d3 3b 0a 40 8e bb 83 02 b0 3b f3 48 25 3c
       0.006441047 -0.00434113 0.005371393 0.010088193
000040 d5 3b ba bc 09 cb 72 bb 21 ec d6 3a 67 01 df 3b
       -0.022733608 -0.0037047288 0.0016397276 0.006805587
000050 07 cd fe ba d8 f7 33 3c 5d 91 50 bc 51 ea 5e bb
       -0.0019439765 0.0109843835 -0.01272997 -0.0034014175
000060 ba be 50 bc b7 db 1a bb 37 d9 54 bc 00 14 92 bb
       -0.012740785 -0.0023629495 -0.012991241 -0.0044579506
000070 c6 87 11 3b 11 90 da bb 63 7d 01 3c dd 34 6d 3c
       0.0022206171 -0.006670006 0.00790343 0.014477936
000080 86 6b a9 bb 02 29 57 bc fd 04 03 3b 7d 98 e6 3b
       -0.0051702885 -0.013132336 0.0019991987 0.007037221
000090 e7 43 53 3c 77 18 23 3c fc 1e 57 3c 02 97 b8 bc
       0.012894607 0.009954563 0.013129946 -0.022532944
0000a0 37 57 b2 3c 91 4f 13 b9 8d f5 5e 3a 18 7a 6b 3b
       0.021770103 -0.00014048653 0.0008505218 0.0035930928
0000b0 2f 28 2f 3c 63 d6 ea bc 37 e4 50 3a 0c 7b 5f 3c
       0.010690733 -0.02866668 0.0007968577 0.0136401765
0000c0 ee 37 51 bc 78 3f b8 3c 03 b1 22 bc c2 96 07 3a
       -0.012769682 0.022491202 -0.009929898 0.0005172306
0000d0 c7 fa b3 3c d9 cd ca 3b e2 cc 56 3c 30 ae 95 bb
       0.021970166 0.0061890897 0.013110371 -0.004567884
0000e0 0e 23 17 bd ff dc 30 3c 37 fb 65 3c 7e 5a 8c bb
       -0.036898665 0.010794877 0.014036945 -0.0042832484
0000f0 09 a9 f7 bb 80 3b 09 3c 28 8b f4 b9 67 46 60 3c
       -0.0075579924 0.008376002 -0.00046642986 0.01368866
000100 66 18 02 3c e9 a7 b3 3c 7e 67 8a 3b 89 a7 b8 bc
       0.007940387 0.021930652 0.004223763 -0.022540824
000110 d4 1a 0f bc ea b2 ea bb cb 4d 11 3c 3d a5 84 3b
       -0.008734424 -0.0071624415 0.008868645 0.0040480183
000120 d5 fd ee ba 9a 65 80 3b 06 3f d3 3b 58 96 b7 3b
       -0.0018233607 0.003918362 0.006446722 0.005602639
000130 45 1f 0e 3b 0f 50 a2 3b 0f 91 c2 bb 0b 7e 96 bc
       0.0021686119 0.0049533914 -0.0059377025 -0.018370649
000140 ad 21 18 bc ec a8 05 3c ad 27 3d 3c c6 be f3 bb
       -0.009285373 0.00815795 0.011545104 -0.0074385135
000150 c7 1c 64 3c da 62 87 bc 6d ce 3f 3b 28 f9 1b bc
       0.013922877 -0.016526628 0.0029267326 -0.009519853
000160 c2 4e 4b bc 79 ac 3d bc ad 15 31 3c 8f 1c 96 bc
       -0.012408914 -0.011576765 0.010808391 -0.018324165
000170 38 d8 d1 ba 83 26 c0 bb 70 72 a6 3a fe 1e 83 3b
       -0.0016009873 -0.005863966 0.00126989 0.0040014973
000180 09 f0 1c 3c 64 48 ab bb 53 55 61 3c 63 4b cb bb
       0.009578713 -0.0052271355 0.013753253 -0.006204055
000190 a4 4c 8f 3b 5a 01 24 bc 48 87 5f bc d3 e3 4b 3b
       0.00437315 -0.010010088 -0.013643093 0.0031111136
0001a0 35 67 1f bc e1 3f d6 bb 3f a0 65 3b 50 b5 15 bc
       -0.009729196 -0.0065383767 0.003503814 -0.009137467
0001b0 cb d2 86 3b 73 9a 58 3c 98 a0 fe bb 2f 83 ae bb
       0.004114484 0.013220417 -0.007770609 -0.005325697
0001c0 07 4d 34 bc d1 4a 51 3b e9 02 b5 3a ca 91 d2 bb
       -0.011004693 0.0031935463 0.0013810071 -0.006426071
0001d0 df bc 02 3c 07 7e 26 bc 4e 15 39 bb 9c 37 92 3b
       0.007979601 -0.010161883 -0.0028241458 0.0044621956
0001e0 94 da 1e bc a2 dd 18 bc 41 5c 1e 37 a4 f9 39 3b
       -0.009695668 -0.009330185 9.439013e-06 0.0028377557
0001f0 db 75 53 3b a8 81 9a 3a 17 58 aa bb 5e 83 e4 bb
       0.0032266292 0.0011787908 -0.0051984894 -0.006973668
000200 b4 8e b1 39 15 94 e4 3b 72 61 00 bc ce 04 2a ba
       0.00033866393 0.0069756606 -0.007835733 -0.00064857013
000210 e1 6d 8a bb 76 30 1f bc 13 4b 77 bc 84 1a 0b 3c
       -0.0042245244 -0.009716144 -0.015093583 0.008490209
000220 38 6f d0 bb a5 bc f1 bb 36 61 97 bc 66 69 9f 3a
       -0.0063609146 -0.0073772245 -0.018478971 0.0012162148
000230 91 71 91 3c fd 2b 92 bc 64 07 e2 3b 71 85 65 3c
       0.017754348 -0.01784324 0.0068978537 0.014008866
000240 4e 86 ba 3b bc fe 58 3b 60 25 fb bb 15 69 f9 3a
       0.00569228 0.0033110818 -0.0076643676 0.0019028509
000250 0a 7b 31 3a 2d 78 da bb e4 a0 3d bc cf 93 e9 39
       0.00067703484 -0.006667158 -0.011574004 0.0004455135
000260 1a 54 31 ba ad 9c ff 3a 6d 9e 88 3b 95 48 24 bc
       -0.0006764546 0.0019501649 0.0041692764 -0.0100270705
000270 74 60 09 3c 10 fe 47 3c 9e 35 aa ba 4a e9 67 ba
       0.008384813 0.012206569 -0.001298595 -0.00088467135
000280 7f 8a 0a bc 3a c2 45 3a f2 98 7a ba 5f f9 fc bb
       -0.008455872 0.00075438956 -0.0009559534 -0.007720157
000290 88 e4 29 bc fe bc 6f 3b e0 7a f5 bb 67 10 d9 bb
       -0.0103694275 0.0036581154 -0.0074914545 -0.0066242698
0002a0 ae 0a 7d bb e7 f3 96 bb a3 b2 69 bc 4f ca c1 3a
       -0.0038611102 -0.004606712 -0.014263782 0.0014785024
0002b0 d6 fa 99 bc 10 28 54 bc ec 90 1c 3a 01 17 31 bc
       -0.018796366 -0.012949005 0.0005972523 -0.010808707
0002c0 99 4c 04 bc 92 ae f1 3a 42 23 96 3b a2 f4 ed bb
       -0.008074903 0.0018438867 0.00458184 -0.0072618285
0002d0 8c dc 88 bc 66 34 4e 3c 35 cf ea ba bc 2e 3c 3c
       -0.016706727 0.012585735 -0.0017914536 0.011485752
0002e0 90 9c 9d 3b d5 ce 9c 3b eb 68 1f bc 7a 9d 9b bb
       0.0048099235 0.0047853985 -0.009729604 -0.0047489973
0002f0 67 ab cf bb a3 18 92 bc 2d 40 2f 3b f5 cc 5c bb
       -0.0063375714 -0.017834013 0.0026741133 -0.00336915
000300 e2 0d 8e 3b 36 6a 65 bb 4b 21 8e ba 23 ce 49 bc
       0.004335151 -0.0035005934 -0.0010843662 -0.012317213
000310 96 ee 2a 3b d2 13 fe 3b c4 18 4b bc 50 9f 86 bc
       0.002608215 0.0077538276 -0.012396041 -0.016433388
000320 5b 51 77 3c 4e 90 a6 ba 98 11 00 3c 53 51 38 bd
       0.01509508 -0.0012707801 0.007816695 -0.04499943
000330 32 61 a2 bd 84 89 26 3b 82 c0 79 bd c0 7e 1d 3d
       -0.07928695 0.0025411556 -0.060974605 0.038450956
000340 47 69 8f ba 2b 8d 5e 3b 35 ee ad 3d fa 87 9d 3d
       -0.0010941409 0.0033958654 0.084927 0.07691951
000350 1e 60 b3 bd c2 0c b6 bd 3d 4c d6 3c 0b d5 0c bd
       -0.08758567 -0.08889152 0.0261594 -0.03438286
000360 05 2c 1c bd e7 c8 01 be 96 94 43 bd 29 0d 7c bc
       -0.038127918 -0.12674294 -0.047749124 -0.015383997
000370 5d fd 86 bc e8 01 4e bd e8 e8 2b 3d 51 cc 24 bd
       -0.016478235 -0.050294787 0.041970164 -0.040233914
000380 59 8b bd bd ce 3f d7 3c b1 62 03 3e f0 6c c6 bd
       -0.09255094 0.026275542 0.12830617 -0.09688747
000390 d2 f1 5c bd 7a 80 d8 3c 61 af 8c be 8e 05 38 be
       -0.053941555 0.02642845 -0.27477553 -0.17970869
0003a0 38 5f 15 be 8f f3 22 bd 38 91 a7 bc 0d e9 3a bd
       -0.14587104 -0.039783057 -0.020454988 -0.04563241
0003b0 1f 09 cc 3b 56 b9 4c 3d 10 1b b7 3d ac 85 0a be
       0.0062266733 0.049981438 0.08940709 -0.13527554
0003c0 be 9f 00 be cf 74 42 bd 5c 53 17 3e ee 36 b3 3c
       -0.12560937 -0.04747468 0.14777893 0.021876778
0003d0 07 88 97 bd 29 d2 7a 3d 27 55 f6 3d eb 64 c1 bc
       -0.07398992 0.06123558 0.1202796 -0.023607692
0003e0 f1 f7 e3 bd a9 bf d3 bd db 4d d7 bd 7b 89 94 bc
       -0.111312754 -0.10339291 -0.105128966 -0.018131962
0003f0 11 4d f7 bd f3 b0 58 bd 17 96 f4 3b 9f e0 69 3b
       -0.12075246 -0.052903127 0.007464181 0.0035686863
