results_CNN_adamax/final_cnn.pth (torch, 468103 bytes, 19 tensors)

module.layer1.0.weight f4 [16, 3, 2, 2]
0	0x3d415a35	0.04720517
1	0x3cfa99ed	0.030590976
2	0xbdafe0c4	-0.085877925
3	0x3d83eb16	0.064413235
4	0xbe5e540f	-0.21711753
5	0xbda2b690	-0.07944977
6	0x3e0253c0	0.1272726
7	0x3e99f07e	0.30066293
8	0x3df145be	0.117808804
9	0xbd971c50	-0.07378447
10	0xbd13619a	-0.035981752
11	0xbde73d0c	-0.11290941
12	0x3e468134	0.19385225
13	0x3dfeeb0d	0.12447176
14	0x3e1ddd31	0.15416409
15	0x3eaa1a35	0.3322312
16	0xbd36c653	-0.04462273
17	0x3d8c2560	0.06843066
18	0x3daf6f8c	0.08566198
19	0x3c8fa140	0.017532945
20	0xbbf2f25b	-0.007414145
21	0xbe55a18b	-0.20862405
22	0xbe64e638	-0.22353446
23	0xbe61fc7e	-0.22068974
24	0xbea51a5f	-0.32246682
25	0xbe5bad54	-0.21452838
26	0xbed92346	-0.42409724
27	0xbecb1bde	-0.39669698
28	0xbea285ef	-0.31742808
29	0x3d303dcc	0.043027684
30	0x3e0bef91	0.13665606
31	0x3e0e8251	0.139169
32	0x3e1afe33	0.15136032
33	0x3d8f81ea	0.07007201
34	0x3e0cc385	0.1374646
35	0xbe06b996	-0.13156733
36	0x35d17fd4	1.5608916e-06
37	0xbe3554af	-0.17708085
38	0x3c9e54fb	0.019327631
39	0xbdb21f97	-0.086974315
40	0x3e70e3bf	0.23524378
41	0x3e586203	0.21131139
42	0x3e38e4a1	0.18055965
43	0x3e15daf2	0.14634302
44	0xbdbe24f5	-0.09284393
45	0xbe2a2980	-0.16617393
46	0x3d64af65	0.05583133
47	0x3e149dca	0.14513317
48	0xbe73df31	-0.2381561
49	0xbd6af98b	-0.05736689
50	0xbe73ac34	-0.23796159
51	0x3e73fb11	0.23826243
52	0xbe4dd247	-0.20099746
53	0xbd9db737	-0.07700961
54	0xbd0ac9b0	-0.03388375
55	0x3d8372d2	0.064183846
56	0x3d9d4584	0.07679275
57	0x3bb5d6eb	0.005549302
58	0x3ea4161c	0.32048118
59	0x3e9e8e3c	0.3096789
60	0xbe625b4a	-0.22105137
61	0xbe96dfad	-0.29467526
62	0x3e102ae5	0.14078863
63	0x3e3fcf8e	0.1873152
64	0x3cd42c3a	0.025899995
65	0x3e711249	0.23542131
66	0x3e45a4a8	0.19301093
67	0xbc68448e	-0.014176501
68	0xbe8b87f1	-0.27252153
69	0x3e20dfd2	0.1571038
70	0x3e48580b	0.19564836
71	0xbe3033d2	-0.17207268
72	0xbe881b2d	-0.26583233
73	0xbda4eb3c	-0.0805268
74	0xbe98cd23	-0.29844007
75	0xbe76e2c6	-0.24109945
76	0xbdc277d8	-0.09495515
77	0x3e5a4b83	0.21317868
78	0xbddb649b	-0.10712548
79	0xbe3d9f5c	-0.18517822
80	0xbd5e85d0	-0.054326832
81	0xbd387b3d	-0.045039404
82	0x3e2970cd	0.16546936
83	0xbb931a22	-0.0044891993
84	0x3ea31833	0.318544
85	0xbdf47bf0	-0.11937702
86	0x3b01fa46	0.0019833012
87	0x3e856067	0.26050112
88	0xbe8cde6c	-0.27513444
89	0xbe1be826	-0.15225276
90	0xbe05c883	-0.1306477
91	0x3e8c155d	0.2736005
92	0x3e5fc005	0.21850593
93	0xbdca06b7	-0.09864562
94	0xbe1c1ec5	-0.15246113
95	0xbc7d6fa9	-0.015468516
96	0xbce23218	-0.027611777
97	0x3e08bcbd	0.13353248
98	0xbde13098	-0.10995597
99	0xbe26f465	-0.16304167
100	0x3d670527	0.056401398
101	0x3e3302d3	0.17481546
102	0x3eb72939	0.35773638
103	0x3dfdd98d	0.1239501
104	0xbe8a9ddd	-0.27073565
105	0x3a084553	0.00051983184
106	0x3d53fa70	0.051752508
107	0x3cad517d	0.02115702
108	0xbd1701a5	-0.036866803
109	0x3cbbf59b	0.022944262
110	0x3e273aad	0.16330977
111	0x3e2781a4	0.16358048
112	0x3e6c3712	0.23067883
113	0xbe1ab0eb	-0.15106551
114	0x3e49b5ed	0.19698305
115	0xbe0eb416	-0.13935885
116	0xbdd6641b	-0.10468312
117	0xbe207bc3	-0.15672211
118	0xbe27eef0	-0.16399741
119	0x3e2b699a	0.16739503
120	0x3e40bd15	0.18822129
121	0xbc88e833	-0.016712284
122	0xbd46575d	-0.04842316
123	0xbc75c3e3	-0.015000316
124	0x3e6e6228	0.23279631
125	0xbd80bc4d	-0.062859155
126	0xbe80c4af	-0.25150058
127	0x3c8927f3	0.016742682
128	0xbea617a8	-0.32439923
129	0xbd62d280	-0.05537653
130	0x3deb3992	0.1148559
131	0x3e2fae30	0.17156291
132	0xbdbe781c	-0.09300253
133	0x3cc1ac46	0.023641717
134	0xbe2d5baa	-0.16929498
135	0xbe90060f	-0.28129622
136	0x3e2b80ae	0.16748306
137	0x3e95270f	0.29131362
138	0xbe4ef084	-0.20208937
139	0xbe80eccf	-0.2518067
140	0xbe8c0d3c	-0.27353847
141	0x3d8baaf9	0.0681972
142	0x3eaca37f	0.33718488
143	0xbe3d7c54	-0.18504459
144	0x3e20b14d	0.15692635
145	0x3e35a8d1	0.1774018
146	0x3eb44909	0.3521197
147	0x3d85b89f	0.06529354
148	0x3dc2fe75	0.0952119
149	0xbdd01199	-0.101596065
150	0xbe6ff69e	-0.2343392
151	0x3db10027	0.08642607
152	0xbe21f384	-0.1581555
153	0xbc0f5794	-0.008748908
154	0xbd071465	-0.032978434
155	0xbe2e28fe	-0.17007825
156	0x3e80c450	0.25149775
157	0x3e6acc12	0.22929409
158	0x3ec244f9	0.37943247
159	0x3e1dba43	0.15403084
160	0xbe64861e	-0.22316787
161	0xbe2c294a	-0.16812626
162	0xbbf5165c	-0.007479472
163	0x3c4a23f6	0.012337675
164	0xbe6113ea	-0.21980253
165	0x3e122073	0.14270191
166	0xbe56bdeb	-0.20970885
167	0xbd93739f	-0.07199787
168	0xbe867596	-0.26261586
169	0x3d3bf01b	0.04588328
170	0xbd25ac40	-0.040447474
171	0x3dfc5c31	0.123222716
172	0xbd87bc4e	-0.06627713
173	0xbe96df2a	-0.29467136
174	0x3e585906	0.2112771
175	0xbe829a6f	-0.25508448
176	0x3e4e78b1	0.20163228
177	0xbd59f202	-0.053209312
178	0x3e706c86	0.23478898
179	0x3e61395c	0.21994537
180	0xbe25839f	-0.1616349
181	0xbe84ffb5	-0.2597634
182	0xbcf0eafd	-0.029408926
183	0x3c01b542	0.00791675
184	0x3de0dc13	0.10979476
185	0x3e016f38	0.12640083
186	0x3e34804a	0.17627063
187	0x3e97f75d	0.2968091
188	0x3da8823f	0.082279675
189	0x3df37504	0.11887553
190	0x3d0d5ef1	0.03451437
191	0x3cf330d7	0.029686375

module.layer1.0.bias f4 [16]
0	0xbb2408b3	-0.00250296
1	0x3a0224bc	0.00049645803
2	0xb9b5cff2	-0.00034677942
3	0x392a8cba	0.00016264888
4	0x3a0e57f0	0.0005429974
5	0x3a656732	0.0008751034
6	0xb9d167df	-0.00039940976
7	0x3ad95fd0	0.001658434
8	0xb92f7806	-0.00016734013
9	0xbaa8a91d	-0.0012867782
10	0xbaceaf4d	-0.0015768796
11	0x3a8a6cea	0.0010561023
12	0xb959b86b	-0.00020763434
13	0xba052945	-0.0005079697
14	0xb9de8830	-0.00042444607
15	0x3916f719	0.00014397166

module.layer1.1.weight f4 [16]
0	0x3f504fc7	0.8137173
1	0x3f519b73	0.8187782
2	0x3f3d5b5f	0.73967546
3	0x3f21a87c	0.6314771
4	0x3f84c77c	1.0373378
5	0x3f16dbea	0.5892931
6	0x3f3c5931	0.73573595
7	0x3f516356	0.817922
8	0x3f1fed1f	0.62471193
9	0x3f590285	0.8476947
10	0x3f1e0187	0.6172108
11	0x3f38a0ed	0.72120553
12	0x3f71ecac	0.9450176
13	0x3f763f0b	0.96189946
14	0x3f84014f	1.0312899
15	0x3f25bf33	0.6474487

module.layer1.1.bias f4 [16]
0	0xbf12e497	-0.5738005
1	0xbee82818	-0.4534309
2	0xbed1d975	-0.4098622
3	0xbec1ffa8	-0.37890363
4	0xbe61e385	-0.22059448
5	0xbeb0595d	-0.3444318
6	0xbedc876f	-0.43072078
7	0xbeb2134f	-0.34780356
8	0xbeb8872a	-0.36040622
9	0xbef7dfe9	-0.48413017
10	0xbf0cabe1	-0.54949766
11	0xbedf10f1	-0.43567613
12	0xbef72947	-0.4827368
13	0xbee22bf9	-0.44174173
14	0xbea05634	-0.31315768
15	0xbe91534c	-0.28383863

module.layer1.1.running_mean f4 [16]
0	0x3d470459	0.04858813
1	0x3e30b9f1	0.17258431
2	0xbf34bb52	-0.7059833
3	0x3e8eeec7	0.27916548
4	0x3dc8b44f	0.09800016
5	0x3dc565c7	0.09638553
6	0xbf1ed7be	-0.62047946
7	0x3db171b3	0.086642645
8	0x3e5603b8	0.20899856
9	0x3dfbdaf7	0.122976236
10	0xbce55408	-0.02799417
11	0xbeb31cf9	-0.34983042
12	0x3e1e42e7	0.15455209
13	0x3e3929ad	0.18082304
14	0x3d2533c0	0.040332556
15	0x3ea2050d	0.31644478

module.layer1.1.running_var f4 [16]
0	0x3b409c82	0.002939016
1	0x3d2dda92	0.042444773
2	0x3e136eaf	0.14397691
3	0x3d84bc02	0.06481172
4	0x3cff5b5d	0.031171495
5	0x3c91e8a7	0.017811133
6	0x3dd219aa	0.10258801
7	0x3c49e6ce	0.0123230945
8	0x3d2e6db0	0.042585075
9	0x3c267f46	0.01016218
10	0x3b126c7e	0.0022342498
11	0x3d0fba2e	0.035089664
12	0x3cf5bb6c	0.029996596
13	0x3d5e52d7	0.05427822
14	0x3c9a78c8	0.018856421
15	0x3db7b7dd	0.08970616

module.layer2.0.weight f4 [32, 16, 2, 2]
0	0xbc64183e	-0.013921795
1	0x3d9d2dcb	0.0767475
2	0x3d1bc87e	0.038033
3	0x3c4be242	0.012444081
4	0xbe8c3cb2	-0.27390057
5	0xbe5f2310	-0.21790719
6	0xbea1e65f	-0.31621072
7	0xbe607917	-0.21921192
8	0x3d0618a6	0.03273835
9	0x3bd41832	0.006472611
10	0x3bc78dd3	0.006089905
11	0xbbd655c4	-0.006540986
12	0x3ad166d1	0.0015976076
13	0x3ce87f6f	0.028381078
14	0xb7cc8296	-2.4379504e-05
15	0x3d4ddeb4	0.050261214
16	0xbd236041	-0.039886717
17	0xbd0fbf70	-0.03509468
18	0xbc7e1338	-0.015507512
19	0xbc2c6be7	-0.010523773
20	0xbb145976	-0.002263633
21	0x3d0c4697	0.034247007
22	0xbcacda1b	-0.021100095
23	0x3d09135c	0.03346573
24	0x3d3bd51b	0.04585753
25	0xbd5d356f	-0.054006036
26	0x3d1d20d7	0.038361397
27	0xbc8687ea	-0.01642223
28	0x3e1dd065	0.15411527
29	0x3c7e99e1	0.015539617
30	0x3ddbd387	0.10733705
31	0xbc8adc95	-0.016950885
32	0xbce17451	-0.027521284
33	0x3d329042	0.043594606
34	0x3b5911da	0.0033122213
35	0x3d0bd8e7	0.0341424
36	0xbe05a173	-0.13049869
37	0xbe29d8ee	-0.16586658
38	0xbe5b475e	-0.21413943
39	0xbe665d20	-0.22496462
40	0xbd2d1e7e	-0.042265408
41	0xbd6fcf86	-0.05854752
42	0xbe576022	-0.21032766
43	0xbe599eb9	-0.21251954
44	0x3d43a6e1	0.04776657
45	0xbbb8e59b	-0.0056426055
46	0x3cdeeb11	0.027211698
47	0x3cedbea4	0.029021569
48	0xbe00fce0	-0.12596464
49	0xbe1c50eb	-0.15265243
50	0xbda6bf4e	-0.08141957
51	0xbde61a53	-0.1123549
52	0xbe464af0	-0.19364524
53	0xbe7c6869	-0.24649204
54	0xbe309c72	-0.17247179
55	0xbe5022c4	-0.20325762
56	0xbdd68ee3	-0.10476472
57	0xbe70b495	-0.23506387
58	0xbdd3113c	-0.103060216
59	0xbe3b6929	-0.18301834
60	0xb9a572b3	-0.0003155671
61	0x3bcb72b1	0.0062087406
62	0x3b8e62c1	0.0043452685
63	0x3d2b5f70	0.041839063
64	0x3d13b49b	0.03606091
65	0x3e1faae9	0.15592541
66	0xbe4bcef0	-0.19903159
67	0xbd76738b	-0.060168784
68	0xbe0afee4	-0.13573796
69	0xbe803e87	-0.25047705
70	0xbe554d94	-0.20830375
71	0xbe871e71	-0.26390412
72	0xbcb5302c	-0.022117697
73	0x3da09548	0.07840973
74	0x3b73eb3e	0.0037219073
75	0x3c390296	0.01129212
76	0xbbed0ed1	-0.0072344323
77	0x3d922368	0.071356595
78	0x3c96dd35	0.018416027
79	0x3bce295f	0.006291553
80	0xbc9a3316	-0.018823188
81	0x3c90e91e	0.017689284
82	0xbd0e4354	-0.034732178
83	0xbbdf26be	-0.0068100384
84	0xbcd66a44	-0.026173718
85	0x3ce57fbe	0.028015014
86	0x3cfd0e1f	0.030890523
87	0x3d201344	0.039080873
88	0xbd56b728	-0.052420765
89	0x3e100434	0.14064103
90	0xbd749e82	-0.059721477
91	0x3e467d3e	0.19383714
92	0x3c5595fc	0.013036247
93	0x3c06fd03	0.008239034
94	0x3dbe2139	0.092836805
95	0x3de7e7d5	0.11323515
96	0x3daf8c20	0.085716486
97	0x3d751c5a	0.05984149
98	0x3c71b1a3	0.014751825
99	0x3c05897c	0.008150455
100	0x3c61e1dc	0.013786759
101	0xbdfce5b1	-0.12348498
102	0x3da9f99b	0.082995616
103	0xbebf8b3c	-0.37410915
104	0x3e2b1028	0.16705382
105	0x3daa6f2a	0.08321984
106	0x3d4be198	0.04977569
107	0xbd6f87f7	-0.058479276
108	0xbbc566cc	-0.0060242172
109	0x3dd74ed9	0.10513086
110	0xbd4e121b	-0.050310235
111	0x3e7c83d5	0.24659665
112	0xbd99b0de	-0.07504438
113	0xbe2c9ce0	-0.16856718
114	0xbd62c479	-0.055363152
115	0xbe2f3da2	-0.17113355
116	0xbc210aa8	-0.009829201
117	0xbe5ff982	-0.21872523
118	0x3df71835	0.12065164
119	0xbe0aef37	-0.13567816
120	0xbd49df1d	-0.049285043
121	0xbc979b65	-0.018506715
122	0xbdab3617	-0.08359926
123	0xbd00b1e9	-0.03141967
124	0xbccfae62	-0.025351707
125	0xbbe08948	-0.0068523027
126	0xbd0bf04e	-0.03416472
127	0x3d7e7835	0.062126357
128	0x3da44dd6	0.080226585
129	0x3cae91c6	0.021309745
130	0xbc5b49fc	-0.0133843385
131	0x3da689ee	0.08131777
132	0x3b9361e1	0.004497752
133	0x3a281b25	0.0006412736
134	0x3bc88b5f	0.00612013
135	0x3c4c8fd2	0.012485461
136	0x3cf8fcf7	0.03039406
137	0xbd95dc92	-0.07317461
138	0x3d2e9f65	0.04263248
139	0xbe273797	-0.163298
140	0x3c082971	0.008310662
141	0xbdf0d62e	-0.117596015
142	0xbdcaa381	-0.09894467
143	0xbe0571e7	-0.13031732
144	0xbd58b902	-0.052910812
145	0xbdb758e4	-0.089525014
146	0xbcd5a52e	-0.02607974
147	0xbdc6ca6c	-0.09706578
148	0xbea9c8d7	-0.3316104
149	0xbe9b3796	-0.30315846
150	0xbe3ca146	-0.18420896
151	0xbe299611	-0.16561152
152	0x3d6b123d	0.05739044
153	0xbcc676f2	-0.02422664
154	0x3cff070f	0.031131295
155	0xbd9c6aa1	-0.07637525
156	0x3d8e39e9	0.06944639
157	0x3da3e040	0.08001757
158	0xbc94e136	-0.018173795
159	0xbe01ed41	-0.12688161
160	0xbe683b99	-0.22678985
161	0xbe72345b	-0.23652785
162	0xbd2b38e9	-0.04180232
163	0x3d956f4c	0.07296619
164	0xbc494a63	-0.012285802
165	0xbca5ed3d	-0.020254726
166	0x3c498810	0.012300506
167	0x3d292092	0.041290827
168	0xbdaecc79	-0.08535094
169	0xbdd35a10	-0.103199124
170	0xbe8644d0	-0.26224375
171	0xbe456944	-0.19278437
172	0xbc9e6450	-0.019334942
173	0xbe193f98	-0.14965665
174	0xbc393496	-0.011304041
175	0xbe2219ef	-0.15830205
176	0x3c400780	0.011720538
177	0x3c03618d	0.008018863
178	0xbd65a367	-0.056064036
179	0xbd862d08	-0.06551558
180	0x3c9d3a13	0.019192731
181	0x3c735a25	0.014853035
182	0xbe377cd5	-0.17918713
183	0xbe3b6422	-0.18299916
184	0xbcae6909	-0.021290319
185	0xbd518337	-0.051150527
186	0x3bfa5fa3	0.0076407953
187	0xbdcde23b	-0.10052916
188	0x3d8e91d4	0.06961408
189	0xbdd1cd35	-0.10244218
190	0xbd20b78d	-0.039237548
191	0xbe075e7b	-0.13219635
192	0xbbc529df	-0.0060169543
193	0xbcb37b69	-0.021909432
194	0x3ca009b0	0.01953587
195	0x3cfeff9d	0.031127745
196	0x3c77625e	0.015099136
197	0x3c56c8cb	0.013109396
198	0x3a3b1af3	0.00071374996
199	0x3b4c5e05	0.003118397
200	0xbd25062b	-0.040289085
201	0xbc36f452	-0.011166649
202	0x3c89e199	0.016831206
203	0x3bcbf568	0.006224323
204	0xbe685a3c	-0.22690672
205	0xbeaf68b3	-0.34259567
206	0xbc8a536c	-0.016885482
207	0xbd6aa479	-0.05728576
208	0xbdad39fc	-0.08458325
209	0xbe119d8f	-0.1422026
210	0x3c87d86f	0.016582696
211	0xbd5b0011	-0.05346686
212	0xbc1aca7b	-0.009447689
213	0xbc85916d	-0.016304696
214	0xbd63bdc0	-0.05560088
215	0xbd877445	-0.066139735
216	0xbd1518e2	-0.036400683
217	0x3d007020	0.03135693
218	0xbd01f520	-0.03172791
219	0xbcaa7022	-0.020805422
220	0xbc597e12	-0.013274686
221	0xbe0cf7c0	-0.13766384
222	0x3c14fbff	0.009093284
223	0xbd9cc512	-0.07654776
224	0xbd186d57	-0.03721365
225	0xbd32838f	-0.043582495
226	0x3cdf392c	0.027248941
227	0x3ca32245	0.019913802
228	0x3c884a2e	0.016636934
229	0x3c90cc94	0.017675675
230	0x3a91bda5	0.001111914
231	0xbc1e20f5	-0.009651412
232	0xbe504967	-0.20340501
233	0xbe321141	-0.17389394
234	0x3a69a04b	0.000891213
235	0xbc1e1f55	-0.009651025
236	0xbc9b6519	-0.018969106
237	0xbda1fdc0	-0.07909727
238	0xbd470d1c	-0.048596486
239	0xbca47cdf	-0.020079074
240	0xbd13da32	-0.03609676
241	0xbc95598b	-0.018231174
242	0xbd9456f0	-0.072431445
243	0xbda1cff0	-0.07900989
244	0xbed42dfb	-0.4144133
245	0xbeb4889e	-0.3526048
246	0xbf2c1df5	-0.6723321
247	0xbf16bd3d	-0.58882505
248	0xbc765c55	-0.015036662
249	0xbd5c0b80	-0.053721905
250	0xbcf18353	-0.029481566
251	0xbafa83ec	-0.0019112802
252	0x3c0b8952	0.008516626
253	0xbd1985f8	-0.03748128
254	0xbd278e21	-0.04090703
255	0xbdcdcf82	-0.100493446

module.layer2.0.bias f4 [32]
0	0xb8ce5cdc	-9.840142e-05
1	0x38cc4427	9.7401724e-05
2	0x395583e0	0.0002036239
3	0x3981c46d	0.00024751146
4	0x379dcce9	1.8811277e-05
5	0x37f233d8	2.887279e-05
6	0xb6d693e5	-6.394914e-06
7	0x36632ab5	3.3850495e-06
8	0x3996874b	0.0002871103
9	0x399dfd02	0.0003013388
10	0xb9257ea1	-0.00015782799
11	0x3891c439	6.950688e-05
12	0x38b675f3	8.700406e-05
13	0xb9b0d8bb	-0.00033730813
14	0xb98f5bdd	-0.0002734353
15	0xb9347fa8	-0.00017213693
16	0x39b096cd	0.0003368169
17	0x376b776f	1.4034899e-05
18	0x39648095	0.00021791675
19	0xb981733e	-0.0002469066
20	0x399d83d5	0.00030043596
21	0xb758b188	-1.2915938e-05
22	0xb92efa97	-0.00016687285
23	0x39168c3a	0.00014357353
24	0xb90c2dc8	-0.00013368495
25	0xb9033566	-0.00012513026
26	0x399d7475	0.0003003214
27	0x39356b58	0.00017301494
28	0xb817eff0	-3.6224665e-05
29	0x39a6374d	0.0003170319
30	0xb988d25b	-0.00026096668
31	0xb994f6f9	-0.0002841277

module.layer2.1.weight f4 [32]
0	0x3f0cfdcd	0.5507477
1	0x3eb42a0b	0.35188326
2	0x3f59a2d3	0.85014075
3	0x3f4914e2	0.7854749
4	0x3f48a485	0.78376037
5	0x3f440ae4	0.7657912
6	0x3f18852d	0.5957821
7	0x3f571df9	0.8403011
8	0x3f5a64ae	0.85309875
9	0x3f495b55	0.78654987
10	0x3f637c44	0.8886149
11	0x3f19cc09	0.6007696
12	0x3f41aed1	0.75657374
13	0x3f136525	0.5757621
14	0x3f2f38b7	0.68445915
15	0x3f308470	0.68952084
16	0x3f469201	0.77566534
17	0x3f2cc87a	0.674934
18	0x3f44053c	0.7657049
19	0x3f721dc4	0.9457667
20	0x3f191df9	0.5981136
21	0x3f560474	0.83600545
22	0x3f31b038	0.69409513
23	0x3f539b1b	0.8265855
24	0x3f72ec3f	0.9489173
25	0x3f4e9f76	0.8071207
26	0x3f512252	0.81692994
27	0x3f78781e	0.97058284
28	0x3f4e4c2f	0.80584997
29	0x3f237c1e	0.6386126
30	0x3f37b1d7	0.7175574
31	0x3ee8a4d0	0.45438242

module.layer2.1.bias f4 [32]
0	0xbef56cd2	-0.47934586
1	0xbec16f80	-0.3778038
2	0xbef3a466	-0.47586364
3	0xbefb3683	-0.49065027
4	0xbf06a6cc	-0.5259826
5	0xbf00cb26	-0.5030998
6	0xbf0beabb	-0.54655045
7	0xbf15c27b	-0.5849988
8	0xbf1639c9	-0.58681923
9	0xbf168eaa	-0.5881144
10	0xbf06bed3	-0.52634925
11	0xbef7b649	-0.4838126
12	0xbf0e1bea	-0.55511343
13	0xbec22c10	-0.37924242
14	0xbefb753f	-0.4911289
15	0xbedaee54	-0.42759955
16	0xbeea4df1	-0.4576259
17	0xbede3b1a	-0.43404466
18	0xbf0b2f03	-0.5436861
19	0xbf1b262e	-0.6060513
20	0xbedd6401	-0.4324036
21	0xbee049ef	-0.43806407
22	0xbef96efe	-0.48717493
23	0xbf1a609b	-0.6030366
24	0xbf2a7f45	-0.6660045
25	0xbf020ae7	-0.50797886
26	0xbf11db4f	-0.56975263
27	0xbf280da2	-0.656458
28	0xbf000033	-0.50000304
29	0xbef0bcd4	-0.47019064
30	0xbef0d5dd	-0.47038165
31	0xbec8702f	-0.3914809

module.layer2.1.running_mean f4 [32]
0	0xbe846dc8	-0.25865006
1	0xbd466ca1	-0.04844344
2	0xbea2363f	-0.3168201
3	0xbe8496e5	-0.25896373
4	0xbe8be2ed	-0.27321568
5	0xbec507dc	-0.3848256
6	0xbe74a30e	-0.23890325
7	0xbeb3a2ee	-0.35085243
8	0xbec2237a	-0.3791769
9	0xbee0ec42	-0.4393025
10	0xbea30e04	-0.3184663
11	0xbe93ad12	-0.2884298
12	0xbe5f78d4	-0.21823436
13	0xbe6b85a1	-0.23000194
14	0xbe8a7788	-0.2704432
15	0xbe9649b4	-0.29353106
16	0xbebd5db1	-0.36985543
17	0xbe9ae539	-0.30253008
18	0xbeb02385	-0.344021
19	0xbede93cb	-0.43472132
20	0xbe8e5f6d	-0.2780718
21	0xbe83cb50	-0.25741053
22	0xbe79f065	-0.2440811
23	0xbebd129c	-0.3692826
24	0xbf0dacff	-0.55342096
25	0xbec7e96d	-0.39045277
26	0xbefaa680	-0.48955154
27	0xbedf16da	-0.43572122
28	0xbef7825f	-0.48341653
29	0xbe9e31fd	-0.30897513
30	0xbecd1e31	-0.40062097
31	0xbe0400a6	-0.12890872

module.layer2.1.running_var f4 [32]
0	0x3db09de6	0.08623867
1	0x3d7f83d0	0.062381566
2	0x3e6a54b6	0.22883877
3	0x3dca7c43	0.09886982
4	0x3dd51842	0.104050174
5	0x3e8f6520	0.2800684
6	0x3da8c5d7	0.0824086
7	0x3e7c2c08	0.24626172
8	0x3e349367	0.17634355
9	0x3e4a0cbd	0.19731422
10	0x3e212613	0.1573718
11	0x3ddda367	0.10822182
12	0x3e3e5e65	0.18590696
13	0x3da22726	0.07917623
14	0x3e3f9bc9	0.18711771
15	0x3e29a821	0.16568042
16	0x3e82ef6c	0.2557329
17	0x3e0b0d26	0.13579234
18	0x3e1a2a68	0.15055239
19	0x3e9600df	0.2929754
20	0x3dfe0d65	0.124048986
21	0x3e2f4a73	0.17118244
22	0x3e3d9b65	0.1851631
23	0x3e4a4a9e	0.19755027
24	0x3ecce3a4	0.40017426
25	0x3e9e5ba8	0.30929303
26	0x3e8442b0	0.2583213
27	0x3e6147eb	0.22000091
28	0x3ec0d66b	0.37663588
29	0x3dcbe5ed	0.09955964
30	0x3e7d1045	0.24713238
31	0x3d6b311e	0.05741989

module.layer3.0.weight f4 [64, 32, 2, 2]
0	0xbd2b6f7b	-0.041854363
1	0xbbca7fe3	-0.006179796
2	0xbc72fc02	-0.014830591
3	0x3a9ee959	0.0012123986
4	0xbd002688	-0.031286746
5	0xbba0ee18	-0.0049111955
6	0xbca8f7cb	-0.02062597
7	0xbca8fad7	-0.020627422
8	0x3db3ecb7	0.08785384
9	0xbc19b92c	-0.009382527
10	0x3d8c60fc	0.06854436
11	0x3e08ef39	0.13372506
12	0xbd83c3e7	-0.0643385
13	0xbe13a96b	-0.14420097
14	0x3ddd9404	0.10819247
15	0x3d4519a7	0.048120167
16	0xbda5c407	-0.0809403
17	0xbda7906b	-0.081818424
18	0x3df829ba	0.12117334
19	0x3e197e06	0.1498948
20	0x3c3a9d45	0.011390035
21	0x3d3cb10f	0.046067294
22	0xbdf10612	-0.11768736
23	0x3cadd63e	0.021220323
24	0x3d3755f2	0.0447597
25	0xbc6dbddb	-0.014510597
26	0xbd449681	-0.047995094
27	0x3cd9e0a6	0.026596379
28	0xbdfc64cb	-0.12323912
29	0x3bf0f426	0.0073533235
30	0xbe4636e6	-0.1935688
31	0xbe2fafab	-0.17156856
32	0x3d0735aa	0.033010162
33	0x3e42c84f	0.19021724
34	0xbd9b8a4a	-0.07594736
35	0x3c2ee99c	0.010675814
36	0x3c32fe3f	0.010924875
37	0x3c4980d1	0.012298779
38	0xbc9b3c79	-0.018949734
39	0x3da4ed26	0.08053045
40	0xbdd36a02	-0.10322954
41	0xbe266932	-0.16251066
42	0xbcf9cc7b	-0.030493012
43	0xbe0cd872	-0.13754442
44	0xbc7a5475	-0.015278925
45	0xbd564418	-0.052311033
46	0xbdc681ab	-0.09692701
47	0xbcf1693f	-0.02946913
48	0xbdb14a44	-0.08656743
49	0xbce698ea	-0.028149087
50	0xbce517cc	-0.027965449
51	0x3d16e60c	0.036840484
52	0xbca3a13d	-0.019974345
53	0xbd59e251	-0.053194348
54	0xbc20fff2	-0.009826647
55	0xbc3210b3	-0.010868239
56	0x3de6778a	0.11253269
57	0x3c98b806	0.018642437
58	0xbccbf522	-0.024897162
59	0xbd409263	-0.047014605
60	0x3d3d7eb6	0.04626342
61	0x3d0b2c91	0.03397805
62	0xbbd462d4	-0.006481508
63	0x3d9e774a	0.07737596
64	0x3c6f74cc	0.014615249
65	0x3c12abfd	0.008952138
66	0xbd757753	-0.05992825
67	0xbd4a05d4	-0.049321964
68	0xbda9d34d	-0.082922556
69	0x3d2f6842	0.042824037
70	0xbdb32f77	-0.087492876
71	0xbc842882	-0.016132597
72	0xbe43de7b	-0.19127838
73	0xbdcd6228	-0.100284874
74	0x3c0cfc84	0.008605126
75	0x3d152c1b	0.036419015
76	0xbe1d2620	-0.15346575
77	0xbe6b9f59	-0.23010005
78	0xbcd262e4	-0.02568192
79	0xbe1847ab	-0.14871089
80	0xbdcf3961	-0.10118366
81	0x3d95834e	0.07300435
82	0x3c33ebc7	0.010981507
83	0xbd80a454	-0.06281343
84	0x3c8fc0bd	0.01754796
85	0x3dc2f376	0.09519093
86	0x3c822a17	0.01588921
87	0xbcaea411	-0.021318467
88	0xbc793ac8	-0.015211768
89	0x3d0e22be	0.0347011
90	0xbc584f23	-0.013202461
91	0xbacffa15	-0.0015867377
92	0x39df54ac	0.0004259696
93	0x3c9b10df	0.018928943
94	0x3ca10f68	0.019660667
95	0xbbb8ad4a	-0.005635892
96	0xbd8eeb4e	-0.069784746
97	0x3c5ab224	0.013348136
98	0x3dbe1937	0.09282153
99	0xbce4d9e0	-0.027935922
100	0x3cffd691	0.031230243
101	0x3d925a97	0.07146185
102	0xbe7dea24	-0.24796349
103	0xbdf2825b	-0.118412696
104	0x3cb37309	0.021905439
105	0xbcbc73f0	-0.023004502
106	0xbc00f826	-0.007871663
107	0x3bfe16ab	0.007754167
108	0xbd95eb6b	-0.07320293
109	0x3c1e9e62	0.009681316
110	0xbd5dc993	-0.054147314
111	0xbd86283a	-0.06550641
112	0xbdccfa06	-0.10008626
113	0x3de38a0b	0.11110314
114	0xbc383d6a	-0.011245111
115	0xbbdab1b6	-0.006674017
116	0xbd30932d	-0.043109108
117	0x3d3161cc	0.043306157
118	0xbcc8e740	-0.024524331
119	0xbd144132	-0.036194988
120	0xbe2e2c78	-0.17009151
121	0xbd795ea5	-0.060881276
122	0xbcefa20f	-0.02925208
123	0xbc964ad3	-0.018346226
124	0x3beaa0ae	0.007160268
125	0x3c9b3261	0.018944921
126	0x3cffa52f	0.031206695
127	0xbd0be8c0	-0.034157515
128	0xbae20504	-0.0017243926
129	0xbdb24dbe	-0.087062344
130	0xbbd56d64	-0.0065132845
131	0xbd82c7a7	-0.06385737
132	0xbd9e48dd	-0.07728741
133	0xbda359ae	-0.079760894
134	0x3c775215	0.0150952535
135	0xbd124e20	-0.035719037
136	0xbd464471	-0.048405115
137	0xbc7ddc0a	-0.015494356
138	0xbda7c9e8	-0.081928074
139	0x3c55ec65	0.013056849
140	0xbd1e6ce8	-0.03867808
141	0x3c6fe461	0.014641852
142	0xbdb4270a	-0.087965086
143	0xbc0c3296	-0.0085569825
144	0xbdf60207	-0.120121054
145	0x3d1ba182	0.037995823
146	0xbdd70730	-0.10499418
147	0xbd5a5202	-0.053300865
148	0xbceecd80	-0.029150724
149	0xbc14becb	-0.009078692
150	0xbd32ebc5	-0.04368188
151	0x3cdfa98b	0.027302524
152	0xbdb4af69	-0.08822519
153	0xbd94b508	-0.072610915
154	0xbc9f4872	-0.019443724
155	0xbd868a0e	-0.065693006
156	0xbd919535	-0.07108537
157	0x3bde6b08	0.0067876615
158	0x3c8045c6	0.01565827
159	0x3d537143	0.051621687
160	0x3e2952a4	0.16535431
161	0xbe1d70ea	-0.15375105
162	0x3bdeeb00	0.0068029165
163	0xbd99c9f2	-0.07509221
164	0x3e1b503d	0.15167327
165	0xbe28e5f9	-0.16493978
166	0x3e068bfb	0.13139336
167	0xbda82bd2	-0.08211483
168	0x3cd0da1f	0.025494633
169	0xbce7f81a	-0.028316546
170	0xbd4240cf	-0.047425088
171	0xbc1c672e	-0.009546084
172	0x3d15b08f	0.036545333
173	0xbe0e6672	-0.13906267
174	0x3cfe9791	0.031078132
175	0xbc2982c5	-0.010346119
176	0xbd9a8cb3	-0.075463675
177	0xbdaa8c8f	-0.08327591
178	0xbd2d7771	-0.042350236
179	0x3b308618	0.0026935395
180	0x3d88acec	0.06673607
181	0xbdc7d903	-0.097581886
182	0x3d99cbe8	0.07509595
183	0xbd4296f2	-0.047507234
184	0x3ca0d0d4	0.019630827
185	0x3d40565e	0.046957366
186	0xbd650b77	-0.055919137
187	0x3d553009	0.052047763
188	0xbd71da35	-0.05904599
189	0x3c8024f2	0.015642617
190	0x3c568860	0.013094038
191	0x3d96600e	0.0734254
192	0xbd3ea34c	-0.04654245
193	0x3d0c4423	0.034244668
194	0x3b8bca5c	0.0042660665
195	0x3d552da3	0.052045476
196	0xbc45d57a	-0.012074823
197	0xbd7d8229	-0.06189171
198	0xbdf586fa	-0.11988635
199	0xbdd53d9d	-0.104121424
200	0x3d24dcc4	0.0402496
201	0xbde6cdff	-0.112697594
202	0x3e1275bf	0.14302729
203	0xbddcaeb5	-0.1077551
204	0x3c06e19a	0.008232499
205	0xbdb84e73	-0.08999338
206	0x3d98f329	0.07468254
207	0xbcd67bc9	-0.026182072
208	0xbc4a1789	-0.012334713
209	0xbd84762f	-0.06467854
210	0xbda17aa4	-0.0788472
211	0xbd62a2d3	-0.055331063
212	0x3d20490e	0.03913217
213	0x3e3cc498	0.1843437
214	0x3c67dc61	0.0141516635
215	0x3e075592	0.13216236
216	0xbbe1a04a	-0.006885563
217	0x3c5217ab	0.012823026
218	0xbcb0f7e9	-0.021602588
219	0x3c4dad22	0.012553485
220	0x3d1ad0c4	0.03779675
221	0xbe1b9c7c	-0.15196413
222	0x3d842a29	0.06453354
223	0xbdadce57	-0.08486622
224	0xbdb89bb2	-0.090140715
225	0x3cc50faa	0.02405532
226	0xbde05f7f	-0.109557144
227	0xbcb90d6a	-0.022589404
228	0xbcabc239	-0.020966636
229	0x3c1e8433	0.009675073
230	0xbd54589f	-0.05184233
231	0xbbd36be3	-0.00645207
232	0x3dddd497	0.10831564
233	0xbe27be30	-0.16381145
234	0x3dda0a81	0.10646535
235	0xbdaff60c	-0.085918516
236	0x3d03ce1e	0.03217899
237	0xbddf09f2	-0.10890569
238	0x3e2d9ab9	0.16953553
239	0xbdc0834c	-0.09400043
240	0x3db73031	0.08944739
241	0xbe23e5ac	-0.16005582
242	0xbd83ca38	-0.064350545
243	0xbdb31177	-0.087435655
244	0x3dbd8bb8	0.09255165
245	0xbdcf25a6	-0.10114603
246	0x3d1dbb12	0.038508482
247	0xbda9524e	-0.082676515
248	0x3db28203	0.08716204
249	0xbda33517	-0.079691105
250	0x3d43dc8a	0.047817744
251	0xbd8d0f41	-0.06887675
252	0xbdd4fc34	-0.103996664
253	0xbda9a397	-0.082831554
254	0x3c940e5c	0.018073253
255	0xbcc0b32b	-0.023522934

module.layer3.0.bias f4 [64]
0	0x38a6dc2f	7.956509e-05
1	0xb95476f1	-0.00020262205
2	0xb90c1a8d	-0.00013361331
3	0x381a39df	3.6770358e-05
4	0x39c68cda	0.00037870446
5	0x39cb0c5f	0.00038728394
6	0x3a12c6a4	0.0005599058
7	0xb9411ed5	-0.000184174
8	0x38d94af6	0.00010361329
9	0xb99c4f79	-0.0002981385
10	0xb8a9ed95	-8.102801e-05
11	0x36de520d	6.6256675e-06
12	0xb8859198	-6.369053e-05
13	0xb99b1fda	-0.00029587635
14	0xb9c6f269	-0.00037946113
15	0x38b9349d	8.8312874e-05
16	0xb8eb9a16	-0.00011234374
17	0x39c3cbf5	0.00037345258
18	0x390c8d6c	0.00013404124
19	0x391d912a	0.00015026765
20	0xb9424955	-0.000185286
21	0x3a663693	0.0008781936
22	0xb9929c69	-0.00027963825
23	0x3998f5d2	0.0002917485
24	0x39b70ff5	0.0003491637
25	0x392feb0d	0.00016776864
26	0x39bd1edd	0.00036071884
27	0xba0ae3ef	-0.0005298247
28	0xb907be20	-0.0001294543
29	0xbaffceb2	-0.0019516556
30	0x393e32d1	0.00018138743
31	0xb9afb227	-0.00033511335
32	0x3a8daa8f	0.0010808277
33	0xb96b2e56	-0.00022428608
34	0x38fc4d13	0.000120306526
35	0xb920f804	-0.00015351182
36	0xba14f55a	-0.0005682312
37	0xb9e1a56b	-0.0004303859
38	0xb9118c87	-0.00013880628
39	0xb91285dd	-0.00013973513
40	0xb936efc6	-0.00017446195
41	0xb966904e	-0.00021988267
42	0x3821a9d3	3.8543552e-05
43	0xb919898f	-0.00014642462
44	0x39b16597	0.0003383576
45	0x39865cd5	0.00025627637
46	0x391ce9b9	0.00014964388
47	0x3a396ad7	0.00070731103
48	0x398cfbc5	0.00026890464
49	0x37ee416a	2.8402272e-05
50	0x39c9ca89	0.00038488608
51	0xba0dedf2	-0.000541418
52	0xb952dff7	-0.00020110594
53	0x37f42945	2.9106284e-05
54	0xb9e47b10	-0.00043579238
55	0xba176cf7	-0.000577643
56	0xbb20b900	-0.002452433
57	0x38f8ce89	0.00011864032
58	0x3900407a	0.0001223105
59	0xb9177b3e	-0.00014446393
60	0x390fb675	0.00013705513
61	0x39b8209d	0.00035119514
62	0x37f5ac5b	2.9286535e-05
63	0x3a02280c	0.0004965074

module.layer3.1.weight f4 [64]
0	0x3f89d72f	1.0768794
1	0x3f96a4f5	1.1769091
2	0x3f9dd03b	1.2329172
3	0x3f92ad7e	1.1459196
4	0x3fa26692	1.2687552
5	0x3f937f11	1.1523153
6	0x3fa7b432	1.3101866
7	0x3f94752a	1.1598256
8	0x3f869f3a	1.0517342
9	0x3f9f84f3	1.2462448
10	0x3f85d691	1.0456105
11	0x3f93dfce	1.1552675
12	0x3fa4cc26	1.2874801
13	0x3f94f614	1.1637597
14	0x3f9d5ece	1.2294557
15	0x3f6ed2de	0.9329051
16	0x3f9b49d5	1.2131907
17	0x3f8eb9d0	1.1150455
18	0x3f959e80	1.1688995
19	0x3fa4bebc	1.2870708
20	0x3f706478	0.93903303
21	0x3f9b9338	1.2154303
22	0x3f9f4113	1.2441734
23	0x3f7aa058	0.97900915
24	0x3f8beca9	1.0931598
25	0x3f9b9b07	1.2156686
26	0x3f904ad7	1.1272839
27	0x3f9d7dd6	1.2304027
28	0x3f8c9cd3	1.0985359
29	0x3f76291f	0.96156496
30	0x3fb0e603	1.3820194
31	0x3f7fafe4	0.9987776
32	0x3fae9206	1.3638313
33	0x3fae2780	1.3605804
34	0x3f99fafd	1.202972
35	0x3f96bd26	1.1776474
36	0x3f85ce77	1.0453633
37	0x3f982695	1.1886774
38	0x3fa6e6b6	1.3039157
39	0x3fa46c1d	1.2845494
40	0x3fb70442	1.4298174
41	0x3fa6ed4e	1.304117
42	0x3fa6f456	1.3043315
43	0x3fa280ce	1.2695558
44	0x3faaee75	1.3354021
45	0x3f76df53	0.96434516
46	0x3f7bd90b	0.98378056
47	0x3f7dbafd	0.99113446
48	0x3f9c1abe	1.2195661
49	0x3fa56254	1.2920632
50	0x3fa4b70c	1.2868361
51	0x3f72f92d	0.9491146
52	0x3fa6c070	1.3027477
53	0x3f825027	1.018071
54	0x3fa5d2cb	1.2954954
55	0x3f872975	1.0559527
56	0x3f573331	0.84062487
57	0x3f629c80	0.8852005
58	0x3f97e21a	1.1865876
59	0x3fb5d4e5	1.4205595
60	0x3f6e605b	0.93115777
61	0x3f9909bf	1.1956099
62	0x3fa07706	1.2536323
63	0x3fb9ef76	1.4526203

module.layer3.1.bias f4 [64]
0	0xbef8a8b8	-0.48566222
1	0xbf3b73f1	-0.7322379
2	0xbf4e0069	-0.80469376
3	0xbf1b7210	-0.6072092
4	0xbf269fc0	-0.6508751
5	0xbf506a78	-0.8141246
6	0xbf2856f1	-0.6575766
7	0xbf19ba4f	-0.6004991
8	0xbf112adf	-0.5670604
9	0xbf386d5f	-0.7204189
10	0xbf091563	-0.5354826
11	0xbf0bb95a	-0.545797
12	0xbf5ee0ce	-0.87061775
13	0xbf683625	-0.9070762
14	0xbf1a6d57	-0.6032309
15	0xbec19ccb	-0.37814936
16	0xbf295694	-0.6614773
17	0xbf5959e7	-0.84902805
18	0xbf408f88	-0.7521901
19	0xbf5bbb3b	-0.85832566
20	0xbee2d632	-0.44304043
21	0xbf1a6a2e	-0.6031827
22	0xbf30add9	-0.6901527
23	0xbf99343d	-1.1969067
24	0xbf8ba0a7	-1.0908402
25	0xbf2b4f09	-0.66917473
26	0xbf23dea6	-0.6401161
27	0xbf4ac5f0	-0.7920828
28	0xbf03e175	-0.51515895
29	0xbece3ae7	-0.40279314
30	0xbf480c36	-0.7814363
31	0xbf0000fc	-0.500015
32	0xbf39c2a9	-0.7256265
33	0xbf560f25	-0.8361686
34	0xbf30bac1	-0.69034964
35	0xbf16aa2d	-0.5885342
36	0xbf06151d	-0.52375966
37	0xbf738c47	-0.9513592
38	0xbf6282dc	-0.88480926
39	0xbf34e44a	-0.7066084
40	0xbf3fd293	-0.74930686
41	0xbf58b4c7	-0.84650844
42	0xbf444280	-0.7666397
43	0xbf30b770	-0.69029903
44	0xbf35b813	-0.70984
45	0xbefe121e	-0.49623197
46	0xbef66ad7	-0.48128387
47	0xbedb824a	-0.4287284
48	0xbf5a360c	-0.8523872
49	0xbf569681	-0.838234
50	0xbf16342c	-0.5867336
51	0xbee3b7d8	-0.444762
52	0xbf3590e0	-0.70924187
53	0xbee4fc0b	-0.44723544
54	0xbf3461da	-0.7046181
55	0xbf1f80d7	-0.6230597
56	0xbea30719	-0.31841353
57	0xbec06804	-0.37579358
58	0xbf0879ee	-0.5331105
59	0xbf5bf0e1	-0.8591443
60	0xbf15ce98	-0.5851836
61	0xbf061de7	-0.5238938
62	0xbf516c0b	-0.81805485
63	0xbf718ffc	-0.9436033

module.layer3.1.running_mean f4 [64]
0	0xbc952bf0	-0.018209428
1	0xbc709adb	-0.014685358
2	0xbc7fe9d0	-0.01561971
3	0xbcaf980e	-0.02143481
4	0xbc9bf57b	-0.019037953
5	0xbc5002d6	-0.012695989
6	0xbca2b76a	-0.01986285
7	0xbc714f02	-0.01472831
8	0xbc87a063	-0.01655597
9	0xbc9155fc	-0.017741196
10	0xbc839bad	-0.016065443
11	0xbc9e7c22	-0.0193463
12	0xbc9e1540	-0.019297242
13	0xbc6ea470	-0.014565572
14	0xbc9ebbe3	-0.0193767
15	0xbc5dc972	-0.013536798
16	0xbc92bba9	-0.017911749
17	0xbc56be27	-0.013106859
18	0xbc739a5d	-0.014868346
19	0xbc8da35c	-0.01728981
20	0xbc840718	-0.016116664
21	0xbc8bc7ba	-0.01706301
22	0xbc8ae58f	-0.016955165
23	0xbc2d9086	-0.010593539
24	0xbc6d2e5a	-0.014476383
25	0xbca3b1f7	-0.019982321
26	0xbc72df3f	-0.014823734
27	0xbca54439	-0.020174133
28	0xbc8c3981	-0.017117264
29	0xbc8d672e	-0.017261114
30	0xbcaa1f95	-0.020767013
31	0xbc7f74ae	-0.015591783
32	0xbca265fc	-0.01982402
33	0xbc8d706e	-0.017265525
34	0xbc991d93	-0.01869086
35	0xbc8622c2	-0.016373996
36	0xbca744f7	-0.020418627
37	0xbc88319d	-0.01662522
38	0xbc8cbe22	-0.017180506
39	0xbc88faed	-0.016721213
40	0xbcbc3304	-0.022973545
41	0xbc8d4ede	-0.01724952
42	0xbc8df638	-0.01732932
43	0xbc960aec	-0.018315755
44	0xbca2ba51	-0.019864233
45	0xbc83fda9	-0.016112166
46	0xbc8e7fd3	-0.017394936
47	0xbc8963ac	-0.01677116
48	0xbc86ed64	-0.016470619
49	0xbcab6c53	-0.020925676
50	0xbc9cd2b4	-0.01914344
51	0xbc889116	-0.016670745
52	0xbc93a420	-0.018022597
53	0xbc856e94	-0.01628808
54	0xbcaa0410	-0.02075389
55	0xbc587418	-0.013211273
56	0xbc8b95bc	-0.017039172
57	0xbc83da79	-0.016095387
58	0xbc908050	-0.01763931
59	0xbca96c73	-0.020681595
60	0xbc83b468	-0.016077235
61	0xbc871f18	-0.016494319
62	0xbc6ebdb4	-0.014571596
63	0xbc99b399	-0.018762397

module.layer3.1.running_var f4 [64]
0	0x3adef38f	0.0017009842
1	0x3aa4e3c7	0.001258009
2	0x3ade772f	0.0016972775
3	0x3b1174b4	0.0022194805
4	0x3aea3886	0.0017869629
5	0x3a8f2ceb	0.0010923421
6	0x3ae4ddfd	0.0017461177
7	0x3abbd5aa	0.0014330645
8	0x3af0694b	0.0018341927
9	0x3ad74de3	0.001642641
10	0x3aaa0cc0	0.001297377
11	0x3adb2ea0	0.0016722269
12	0x3ad5c242	0.0016308504
13	0x3aa045ac	0.0012227795
14	0x3af5b2e2	0.0018745328
15	0x3aa5a0cd	0.0012636423
16	0x3adf736f	0.0017047952
17	0x3acda024	0.0015687984
18	0x3aee6a6f	0.0018189679
19	0x3b05c766	0.002041304
20	0x3aa6f3c3	0.0012737442
21	0x3af0bfab	0.0018367668
22	0x3b0694d0	0.0020535477
23	0x3a9bca5a	0.0011885867
24	0x3aad1858	0.0013206108
25	0x3aeecdcf	0.0018219295
26	0x3ab15725	0.0013529999
27	0x3b0388fe	0.0020070667
28	0x3aec2c33	0.0018018543
29	0x3aaa7fb9	0.0013008035
30	0x3afc5420	0.0019251145
31	0x3ad14bbe	0.0015968008
32	0x3ae67355	0.0017581979
33	0x3ac98e5c	0.0015377509
34	0x3b070c67	0.0020606758
35	0x3ad21044	0.0016026576
36	0x3b05fc65	0.0020444628
37	0x3aa5daf4	0.0012653754
38	0x3ad0dfef	0.0015935878
39	0x3afe2f36	0.0019392732
40	0x3b13309a	0.0022459389
41	0x3aee1946	0.0018165491
42	0x3ae95374	0.001780136
43	0x3af5df77	0.0018758614
44	0x3b04cb02	0.0020262604
45	0x3aa40702	0.0012514296
46	0x3ac70bba	0.001518599
47	0x3ac7502c	0.0015206388
48	0x3ab6552c	0.0013910881
49	0x3ae96b9e	0.0017808562
50	0x3afac4e4	0.0019132164
51	0x3ad4b760	0.0016228966
52	0x3adf3824	0.0017030281
53	0x3ac4ff42	0.0015029686
54	0x3ae1312d	0.0017180793
55	0x3aad287b	0.0013210917
56	0x3a9cec32	0.0011972247
57	0x3ad17a79	0.0015981934
58	0x3ae571ca	0.0017505225
59	0x3af4583b	0.0018642017
60	0x3a9e4e7e	0.0012077836
61	0x3ae05073	0.001711382
62	0x3ad5b13c	0.001630343
63	0x3aeb733d	0.0017963421

module.fc.weight f4 [1, 104000]
0	0x3b6734b5	0.0035279219
1	0x3cda156a	0.02662154
2	0xbc51c4ce	-0.01280327
3	0x3b3c1ef2	0.0028704968
4	0xbc706455	-0.0146723585
5	0x3c25fa23	0.010130438
6	0x3c1291a8	0.00894586
7	0xbbd6c879	-0.00655466
8	0xbc041173	-0.008060801
9	0x37d0955d	2.4865085e-05
10	0x3ca7adb3	0.020468568
11	0xbbf98198	-0.0076143257
12	0xbbf408c7	-0.0074473354
13	0xbc07eb2c	-0.008295815
14	0xbb3ae96f	-0.0028520485
15	0x3b418824	0.002953061
16	0xbc9c6b3e	-0.019094106
17	0xbc4607c6	-0.012086814
18	0xbb3c0611	-0.002869014
19	0xbc528b4e	-0.012850596
20	0xbbd6d3a3	-0.006555991
21	0x3b4190d2	0.0029535783
22	0xbc826d5e	-0.015921291
23	0xbb06ace3	-0.0020549826
24	0xbcc711e7	-0.024300529
25	0x3b47e49b	0.003050125
26	0xbc24dc4f	-0.010062291
27	0xbb7c87e0	-0.0038533136
28	0xbb8e915f	-0.0043508257
29	0xbbaec7fe	-0.0053338995
30	0x3c794358	0.01521381
31	0x3b4e5332	0.0031482694
32	0x3b8ae402	0.0042386064
33	0xbbc4eb37	-0.006009485
34	0x3c5b5d75	0.013388981
35	0x3c7be0a5	0.015373384
36	0x3c020e2e	0.007937951
37	0x3b5a8b59	0.0033347218
38	0x3bf8c35e	0.007591649
39	0xbc4b4196	-0.012405774
40	0x3c81be81	0.01583791
41	0x3c06df79	0.008231991
42	0xbc6163a3	-0.013756665
43	0xbc978e5d	-0.018500501
44	0x3bb88204	0.0056307334
45	0xbcd8d46a	-0.026468474
46	0x3c14af6d	0.009075028
47	0x3c250042	0.010070862
48	0xbbc1d679	-0.0059154597
49	0x3c92ac28	0.017904356
50	0xbc34ad92	-0.0110277105
51	0x3b5ff9fa	0.0034176097
52	0x3c5afcaf	0.0133659085
53	0x3b312c23	0.0027034364
54	0x3c4896eb	0.012243013
55	0xbc8ff3ca	-0.017572302
56	0xbc9c1f1f	-0.019057808
57	0x3c0e4df5	0.008685579
58	0x3c5d5518	0.013509057
59	0x3c11baf8	0.0088946745
60	0xbc2311d9	-0.009952986
61	0xbc0d441a	-0.008622194
62	0xbc8c91af	-0.017159311
63	0x3c4f77a4	0.012662802
64	0x3bd6da23	0.0065567656
65	0x3cd104b8	0.025514945
66	0xb98b7a19	-0.00026603116
67	0xbcb6b3dc	-0.02230256
68	0xbb622ae5	-0.003451043
69	0xbc04ef67	-0.008113719
70	0x3c523c89	0.0128318155
71	0xbbe69112	-0.0070363367
72	0xbbff5e74	-0.007793242
73	0xbbe3a723	-0.0069474145
74	0x3b5a4619	0.0033305942
75	0x3baa47bd	0.00519654
76	0xbb1a02b4	-0.0023500146
77	0x3c6ff0af	0.014644786
78	0xbafe47d4	-0.0019400069
79	0xbc038057	-0.008026204
80	0xbb9deaa7	-0.0048192325
81	0xbb65f806	-0.003509046
82	0x3c07b999	0.008283996
83	0xbb06af5d	-0.0020551302
84	0xbbc9bb14	-0.0061563347
85	0x3a8d9b33	0.0010803699
86	0x3b83b790	0.004019685
87	0xbbe37f65	-0.006942677
88	0xbc730e10	-0.014834896
89	0xbc09b68e	-0.008405341
90	0x3c293c3f	0.010329305
91	0xbc69c943	-0.014269176
92	0x3bafbe0e	0.0053632325
93	0xbc2050ca	-0.009784887
94	0x3b604361	0.0034219848
95	0xbc2a1261	-0.010380358
96	0x3b8ffcdc	0.004394157
97	0x38d46001	0.0001012683
98	0x3a908dbf	0.0011028572
99	0xbb990205	-0.00466943
100	0x3c137683	0.009000423
101	0xbc03f158	-0.008053146
102	0xbba60005	-0.0050659203
103	0xbbb07a97	-0.0053857076
104	0xbb39f26a	-0.002837325
105	0xbb91a48c	-0.0044446643
106	0xbb122294	-0.0022298442
107	0x3a2c6760	0.00065766834
108	0xbbb05915	-0.005381713
109	0x3c20c33f	0.009812175
110	0xbba0406d	-0.0048904927
111	0xbb696089	-0.0035610518
112	0xbc17fa24	-0.009275947
113	0xbb271851	-0.0025496671
114	0xbc10d59c	-0.008839991
115	0xb870d130	-5.741528e-05
116	0xbc86a772	-0.016437266
117	0xbc14766a	-0.009061435
118	0x3bc845ce	0.006111837
119	0x3adff574	0.00170867
120	0xbc7acb82	-0.015307309
121	0xbb56c796	-0.003277277
122	0x3becf042	0.0072307894
123	0x3b965631	0.0045879115
124	0x3c34242b	0.010994951
125	0x3bc256c3	0.005930753
126	0x3b2cf434	0.0026390674
127	0x3b84ee03	0.0040566935
128	0xba9ac759	-0.0011808678
129	0x3c242b31	0.010020063
130	0x3a3b19fa	0.00071373547
131	0x3b1a80e6	0.0023575365
132	0x3aeacc70	0.001791371
133	0x3bcca16a	0.006244828
134	0xbcb6ff6d	-0.022338593
135	0x3bef3cf0	0.0073009655
136	0xbbd9213b	-0.006626276
137	0xbc7f034b	-0.01556475
138	0xbcd3959a	-0.025828172
139	0xbc21ae59	-0.009868228
140	0x3c830337	0.015992744
141	0xbc898b22	-0.016789977
142	0xb990ed0b	-0.0002764243
143	0x3c2a6691	0.01040043
144	0xb9f08c9c	-0.0004588113
145	0x3c1014c1	0.008794011
146	0xbc2d5475	-0.010579218
147	0x3c81a578	0.015825972
148	0xbb2b68cd	-0.0026154995
149	0xbbd703c9	-0.0065617305
150	0xbc6e243e	-0.014535008
151	0x3c0cc944	0.008592907
152	0xb94c524a	-0.00019485611
153	0xbb269a76	-0.0025421656
154	0xbc087308	-0.008328207
155	0xbba3016e	-0.0049745357
156	0x3a133476	0.0005615422
157	0x3be3bcf2	0.0069500143
158	0xb8538c45	-5.0436956e-05
159	0xbc6b2bef	-0.014353736
160	0xbbd86599	-0.0066039083
161	0xbbc5a515	-0.006031642
162	0xbc7d9da5	-0.01547948
163	0xba857004	-0.0010180478
164	0xba215ba1	-0.00061553164
165	0x3b1ab323	0.002360531
166	0x3b0732b5	0.002062959
167	0x399414e7	0.00028244333
168	0x3bbdf982	0.005797566
169	0xbc3d3024	-0.011547122
170	0x39fe3a47	0.00048490075
171	0xba8b4b7f	-0.0010627358
172	0xbc7081f8	-0.014679424
173	0xbc4ebcf1	-0.012618289
174	0xba926493	-0.001116889
175	0xbc10a128	-0.008827485
176	0x3aab5cab	0.0013073882
177	0x3c2251f9	0.009907239
178	0x3a85215e	0.0010157039
179	0xbbd83f4a	-0.0065993415
180	0xbbe9cb61	-0.0071348404
181	0x3c1623e2	0.009163829
182	0xbb67f8b9	-0.0035396053
183	0x3be07a4e	0.0068505174
184	0x3c26a6d5	0.010171612
185	0xba167d8b	-0.0005740753
186	0x3bcf8f19	0.0063341972
187	0xbb62eecc	-0.0034627197
188	0xbbd940bd	-0.006630032
189	0xbc397363	-0.011319014
190	0xb93d3935	-0.00018045756
191	0x3b21d44c	0.002469319
192	0xbbe81d36	-0.0070835603
193	0xba964405	-0.0011464363
194	0xbb98b732	-0.0046605105
195	0xbb842b3a	-0.0040334733
196	0x3c2fb583	0.010724428
197	0xbb5b9148	-0.0033503342
198	0xbc504bca	-0.012713382
199	0xbc381abb	-0.011236842
200	0x3c8b5526	0.017008375
201	0xbbe32f87	-0.006933156
202	0x3c9983db	0.018739631
203	0xbd07884d	-0.03308897
204	0xbd994487	-0.07483774
205	0xbc0428a2	-0.008066328
206	0xbd6f5f35	-0.058440406
207	0x3d4ce32e	0.050021343
208	0xbb13eca1	-0.0022571462
209	0x3bc6a0ea	0.006061663
210	0x3dab9449	0.083778925
211	0x3d937a07	0.07201009
212	0xbdb62fa2	-0.08895804
213	0xbdbb1769	-0.091353245
214	0x3c8dd19d	0.017311865
215	0xbd24fba9	-0.040279064
216	0xbd34c88f	-0.04413658
217	0xbdf3cc8a	-0.11904247
218	0xbd304553	-0.043034863
219	0xbbe60b63	-0.0070204004
220	0xbc75c512	-0.0150005985
221	0xbd345bf7	-0.044033017
222	0x3d0773de	0.033069484
223	0xbd07d783	-0.033164512
224	0xbdb4cc73	-0.08828058
225	0x3c9bd51e	0.01902252
226	0x3df97247	0.1218
227	0xbdda0fe1	-0.1064756
228	0xbd66e8a3	-0.056374203
229	0x3caf5dd6	0.02140705
230	0xbe8b4bd5	-0.27206293
231	0xbe3a8927	-0.18216382
232	0xbe23cdd5	-0.15996487
233	0xbcf7846b	-0.030214509
234	0xbc92888a	-0.017887373
235	0xbd3f79bf	-0.046746965
236	0xbba09845	-0.0049009644
237	0x3d3ebfdc	0.04656969
238	0x3dbcd7a6	0.09220819
239	0xbdf5f6c6	-0.12009959
240	0xbe0852db	-0.13312857
241	0xbd034c72	-0.032055326
242	0x3e12461d	0.14284559
243	0x3cf53dbd	0.029936666
244	0xbd8c25b2	-0.06843127
245	0x3d88f493	0.06687274
246	0x3e00c7a8	0.12576163
247	0xbcebbea4	-0.028777428
248	0xbdd40164	-0.10351828
249	0xbdd64e36	-0.10464136
250	0xbdc599aa	-0.0964845
251	0xbc80b4e9	-0.015711265
252	0xbdfc5775	-0.123213686
253	0xbd35b80e	-0.04436498
254	0x3a7c2571	0.00096186163
255	0x3bd60a4c	0.006531989
