results_CNN/cnn_new_state_augmented_100.pth (torch, 468653 bytes, 19 tensors)

module.layer1.0.weight f4 [16, 3, 2, 2]
000000 8b 08 02 3e e7 b2 36 3e 7c 2b e7 3a 0a 90 70 3e
       0.12698571 0.17841683 0.0017636861 0.23492447
000010 1d 97 12 be d5 e5 2e 3d 65 d0 30 3e 74 90 cc 3e
       -0.14315458 0.042699654 0.17266996 0.3995396
000020 1a fe 18 bd 16 16 5d be 6a 39 f3 bd 79 bf 54 be
       -0.037351705 -0.21590456 -0.11876185 -0.20776166
000030 49 41 a6 3e 12 78 55 3e f9 32 96 3e 77 14 d2 3e
       0.32471684 0.20846584 0.29335764 0.41031238
000040 5e d5 46 3d 44 34 5b 3d 7d 85 ac 3c e1 48 1f be
       0.048543327 0.05351664 0.021059746 -0.15555145
000050 6b 71 f7 bd 84 59 6f be 0a d2 9c be bf d3 42 be
       -0.1208218 -0.23373991 -0.30628997 -0.19026087
000060 23 d8 e0 be 58 03 f8 be cc 6d ab be 86 3f 04 bf
       -0.439149 -0.4844005 -0.33482206 -0.5165943
000070 6e 3d 97 be 8a f1 13 3e 2d f2 1f 3e 1f 02 64 3e
       -0.29539055 0.14447609 0.15619726 0.22266434
000080 1e 18 26 3e b3 e4 5e 3d 82 b9 f5 3d 95 61 35 be
       0.16220137 0.054417323 0.119982734 -0.17713006
000090 0a 5c 97 bd c9 08 ae be 57 bf f1 bc 32 e6 41 be
       -0.07390602 -0.33991078 -0.029510183 -0.18935469
0000a0 a2 a4 df 3e 47 cb 07 3f 7f 18 1e 3e 22 db 6e 3e
       0.43680292 0.5304455 0.15439032 0.2332578
0000b0 a7 1b 5f 3c 59 c4 b1 bc 3d f2 70 3d fb 35 64 3e
       0.013617433 -0.021700071 0.058824766 0.22286217
0000c0 25 76 65 be 22 73 9c bd d6 a4 6d be 30 f5 58 3e
       -0.2240835 -0.07639147 -0.23207411 0.21187282
0000d0 9c 1c 96 be 45 aa 08 be 6e 8d 91 3c f4 ae 19 3e
       -0.29318702 -0.13346203 0.017767634 0.15008146
0000e0 16 e8 c0 3d aa 36 cc 3c d9 a6 f1 3e 8c f8 f2 3e
       0.09419267 0.02492841 0.47197607 0.4745525
0000f0 0f 3d 03 be dd 9d 38 be 9f ba 25 3e e2 8e 60 3e
       -0.12816261 -0.1802897 0.16184472 0.21929505
000100 c9 68 7b 3e bc 7a d2 3e d1 68 b9 3e e0 3c b6 3d
       0.24551691 0.41109264 0.3621278 0.0889833
000110 7d 2a cc be 8b 55 74 bc af 91 bb 3d 9f 8e a8 be
       -0.39876166 -0.014912973 0.09158646 -0.3292131
000120 ba a4 97 bf f0 62 48 bf 4f 7d d5 be 1a 91 a1 be
       -1.1847146 -0.78275967 -0.41697165 -0.31556016
000130 f1 e5 4d be 53 71 28 3e 04 c7 ad bc a8 65 80 bd
       -0.20107247 0.1644948 -0.021213062 -0.062693894
000140 20 a0 b5 bd 1d 51 22 bd d4 26 8f 3d 82 8d 4e bd
       -0.08868432 -0.039628137 0.06989828 -0.05042792
000150 b6 2f ac 3e fd e0 c9 bd 35 43 8f 3d c4 9e a5 3e
       0.3363015 -0.09857366 0.069952406 0.3234769
000160 82 9d d5 be 57 d2 2c be f8 6f 31 be 12 f5 c0 3e
       -0.4172173 -0.16877113 -0.17327869 0.37686974
000170 d9 70 82 3e de 8c 8e bd 5f 11 2d be ed 79 cb bc
       0.2547672 -0.06960462 -0.16901158 -0.024838412
000180 28 1d e1 bd 46 b1 b3 3d 87 d1 12 be ad b7 36 be
       -0.10991889 0.087740466 -0.14337741 -0.17843504
000190 ef 69 7a 3e 3b 11 b9 3e d5 74 ed 3e 2a 93 6e 3e
       0.24454473 0.36145958 0.46378198 0.23298326
0001a0 ec 67 94 be 0f 9e e5 bc 9c d8 f5 bc 68 2e 79 bd
       -0.28985536 -0.02802947 -0.030010514 -0.060835272
0001b0 54 88 7b 3d 5c 74 9c 3d 3a 50 86 3e 32 2b 7b 3e
       0.06140931 0.07639381 0.26233083 0.24528196
0001c0 d6 34 3f 3e 9a 4b 51 bd 50 5c 68 3e b2 69 61 3d
       0.18672499 -0.05109749 0.22691464 0.05503244
0001d0 ba 69 81 be 92 81 82 be c4 9c 95 be 1c c3 9a 3d
       -0.25275975 -0.2548948 -0.29221165 0.075567454
0001e0 55 28 9b 3c 60 5a c2 bd 1f 5a 25 be 6c c1 51 bd
       0.01894013 -0.09489894 -0.1614766 -0.051209852
0001f0 5b 27 db 3d 2f 83 76 be be 08 cd be 4a 2d 3b be
       0.10700866 -0.2407348 -0.40045732 -0.18278995
000200 f6 5a fb 3b 10 bd 86 3e cc f5 8c 3e 16 5e 9c 3e
       0.0076707555 0.26316118 0.27531278 0.30540532
000210 50 92 ff be 0a 37 8b be db 72 48 bf 71 31 3f bf
       -0.49916315 -0.2719043 -0.78300256 -0.74684817
000220 a9 52 ed 3d 1d 02 94 3e 3b 67 7f be de 36 8a be
       0.11588032 0.28907862 -0.24941723 -0.26994985
000230 00 37 04 be 73 09 83 3e 34 b2 65 3e f7 9b a7 be
       -0.12911606 0.25593147 0.2243126 -0.3273618
000240 18 97 63 3e 8b 9f 86 3e 20 d2 ec 3e 19 69 46 3e
       0.22225606 0.26293597 0.46254063 0.19376029
000250 6e 1a 35 3e 2e 3d a6 bd d5 90 42 be 08 d1 bb 3d
       0.17685863 -0.08117138 -0.19000562 0.09170729
000260 1d e4 71 be 62 d5 98 bd 94 ac 0a be 9f 72 87 be
       -0.23622175 -0.074625745 -0.13542396 -0.26454636
000270 ce ec af 3e b5 dd c7 3e a4 9f ce 3e d4 cf 70 3e
       0.34360355 0.39036337 0.4035617 0.2351678
000280 44 93 69 be 5c 60 1a be a7 46 4d bd 28 a6 42 3b
       -0.22810084 -0.1507582 -0.050116207 0.0029701088
000290 90 15 9c be a2 e6 5f 3d 08 eb 8a be fb 6e 15 be
       -0.304852 0.054663308 -0.2713244 -0.14593117
0002a0 97 af df be 0d b3 2f be 8b ad a4 3d 75 70 69 3e
       -0.43688652 -0.17158146 0.08040913 0.22796805
0002b0 0b 4a 2f be ab a4 d5 be 58 b0 7e 3e ad 59 70 be
       -0.17118089 -0.41727194 0.24871957 -0.23471709
0002c0 0e 60 42 3e 23 55 8b 3d fc 52 f1 3d b1 4e 72 3e
       0.18981954 0.06803348 0.11783406 0.23662831
0002d0 b2 97 5b be c3 a5 ba be 39 f5 d1 3c bd 27 25 3d
       -0.21444586 -0.3645459 0.025629627 0.0403211
0002e0 46 a3 27 be 18 a7 46 be 95 ed 0a 3e fc 53 9e 3e
       -0.16370878 -0.19399679 0.13567193 0.3092345
0002f0 d3 8b 9d 3e 36 1b ba 3e f5 aa 55 3e 0c 19 29 3e
       0.3077074 0.36348885 0.20865996 0.16513461

module.layer1.0.bias f4 [16]
000000 b2 92 ab be e8 e7 58 bc bd 96 9b bc 91 81 cb be
       -0.33510357 -0.0132388845 -0.018992776 -0.3974729
000010 5c e8 17 3e 8f 4a 98 3c 02 83 01 bf 13 c6 66 be
       0.14834732 0.01859024 -0.5059053 -0.22536497
000020 6b 6e 68 be ca 78 ca 3e 3c 67 48 3d 0f 94 70 3c
       -0.22698371 0.3954528 0.048926577 0.014683737
000030 39 e9 89 be 3d 4a 28 be e6 eb b6 3e df cf 43 be
       -0.26935747 -0.1643457 0.3572685 -0.19122265

module.layer1.1.weight f4 [16]
000000 ea ca 66 3f 8b 66 80 3f 82 33 3d 3f a1 a5 4c 3f
       0.9015337 1.0031294 0.7390672 0.7994023
000010 1f be 45 3f fa b7 2e 3f 5a 6a 68 3f 7c ad 61 3f
       0.77243227 0.68249476 0.9078728 0.8815534
000020 74 7e 2e 3f 8a 3a 6d 3f 77 2d 71 3f 6e e4 7f 3f
       0.681617 0.9266745 0.9421 0.9995793
000030 78 34 87 3f e0 ee 85 3f a9 c2 49 3f 7d 00 44 3f
       1.0562887 1.0463524 0.7881265 0.76563245

module.layer1.1.bias f4 [16]
000000 b0 60 0a bf 88 43 0d bf c9 da 0d bf 84 6e 91 be
       -0.54053783 -0.5518117 -0.55411965 -0.2840463
000010 66 e2 96 be c0 b2 0e bf 8d 3b 0d bf 05 ff 7c be
       -0.29469603 -0.557415 -0.5516899 -0.24706657
000020 f1 73 eb be 58 c6 44 bf 2a d2 03 bf c4 a1 1d bf
       -0.45986894 -0.7686515 -0.5149256 -0.6157496
000030 dc 40 04 bf a5 0d 04 bf 3d 7a 32 be 75 46 6e be
       -0.5166147 -0.5158332 -0.17429443 -0.23269065

module.layer1.1.running_mean f4 [16]
000000 e4 67 78 bd a1 0c 64 3e 08 e9 63 bf 3b 1d 46 3e
       -0.060645953 0.22270443 -0.8902745 0.19347088
000010 b0 a0 e5 3e be 58 b1 3e d7 6d 14 c0 53 80 ab bd
       0.44849157 0.34638017 -2.319204 -0.08374085
000020 7f 9b ed 3d 2b 7d 1b 3f ea 73 3e bd 5f 18 bc bf
       0.11601924 0.60737866 -0.046497263 -1.4694937
000030 4d bc 98 3c 46 72 35 3d b7 41 3f 3e 3e 3a 3b 3e
       0.018644476 0.044298433 0.18677412 0.18283936

module.layer1.1.running_var f4 [16]
000000 bd dc 32 3d 1f 88 ba 3d cd c4 63 3e 89 89 8c 3e
       0.043667544 0.09107994 0.22243042 0.2744868
000010 d8 30 b0 3d 34 8b bc 3d d4 79 5a 3f 6c b5 bc 3c
       0.08603066 0.092062384 0.85342145 0.023035727
000020 db 3c 06 3e 21 68 39 3d ff 26 20 3d 6a 1e 17 3f
       0.13109152 0.04526532 0.03909969 0.59030783
000030 be 51 9b 3d 5f e4 da 3d 13 5f 23 3d 5f a9 f5 3d
       0.075839505 0.106880896 0.03988559 0.119951956

module.layer2.0.weight f4 [32, 16, 2, 2]
000000 25 41 77 be 7c 61 ad be fe 85 f9 bd 92 3d b0 be
       -0.24145944 -0.33863437 -0.1218376 -0.34421974
000010 8c 05 dd be 28 b8 dc be c8 70 cc be 08 9b 0a bf
       -0.43168294 -0.4310925 -0.39929795 -0.5414281
000020 01 e3 77 3d 8a ff 97 3d e0 0a 72 bd b8 21 bd 3d
       0.060519222 0.07421787 -0.059092402 0.09234947
000030 63 11 0f 3d ac d4 09 3e ab 3c ca 3b 46 dc f4 3c
       0.03492869 0.13460034 0.006171783 0.02989019
000040 2a 19 33 be 5d 3a 35 be a0 d7 89 bc fb a1 99 3d
       -0.17490068 -0.17698045 -0.01682645 0.075015984
000050 87 7a 65 bd c7 a7 a3 bd 23 6d b3 3b 50 13 39 3a
       -0.056025054 -0.07990985 0.0054756566 0.0007060068
000060 00 7f 98 3d 36 79 70 3e 3e 61 16 3c 5e 06 a1 3d
       0.07446098 0.23483738 0.009178458 0.078625426
000070 91 74 e6 3d 2d eb 94 bd 17 b3 14 bb a7 f9 d7 bc
       0.11252702 -0.07271419 -0.0022689754 -0.02636416
000080 01 a8 45 3d d1 64 66 3d 83 3c 87 3b 3b 6b 07 3d
       0.048255924 0.05624849 0.0041270866 0.033061247
000090 7a 83 c3 be a8 62 16 bf c6 c3 05 be 8f c5 ed be
       -0.38186246 -0.5874429 -0.13062963 -0.46439788
0000a0 43 ed b4 be e6 62 95 be dc cc ab be 24 1f 18 be
       -0.35337266 -0.29177016 -0.33554733 -0.14855629
0000b0 0d 99 06 3d cf e2 10 3e c8 04 c2 bd 36 15 26 3e
       0.032860804 0.1414902 -0.09473568 0.16219029
0000c0 7a c9 fa be ef 76 05 be a4 f1 82 be 68 fd ec be
       -0.4898184 -0.13033651 -0.25574982 -0.46287084
0000d0 de e2 a9 be 37 1a 80 be cf cd 41 be 71 d8 8b be
       -0.33180898 -0.2502 -0.18926166 -0.2731357
0000e0 50 ea 99 be 5a e1 32 be 36 02 34 be da 1f aa bd
       -0.3006158 -0.17468777 -0.17578968 -0.083068565
0000f0 11 37 14 be 87 b2 7b bd 04 17 d6 bc c7 df 89 3d
       -0.14474131 -0.061449554 -0.026134022 0.06732135
000100 f2 34 84 3c 3d c0 e4 bd 16 03 29 be 65 2b 00 bf
       0.016138528 -0.11169479 -0.16505083 -0.50066215
000110 db c9 59 3d 04 43 15 bf 15 84 36 3e c4 19 15 bf
       0.05317102 -0.5830538 0.17823823 -0.5824244
000120 a8 ff 4a bd 29 96 cf 3d a3 da 1a 3c 88 00 c7 3d
       -0.04956022 0.10136063 0.009451541 0.09716898
000130 fc b4 01 bd 2f bd dd 3c 1e 0f bb b9 af d9 a1 3d
       -0.03166674 0.027067749 -0.00035678683 0.07902848
000140 88 8d 98 bd b3 54 10 be 3c 5a 0b be 2e a4 6c be
       -0.0744887 -0.1409481 -0.1360864 -0.23109505
000150 2f ab 6a bd e5 55 ad bd 69 5f 3c bd d3 72 7f bd
       -0.05729216 -0.08463649 -0.045989428 -0.062365364
000160 8d 04 0c bd 94 15 1e 3e 6a 1d ce 3c 20 6c 86 3e
       -0.034184027 0.15437919 0.02516051 0.26254368
000170 2e fb 8f bc 44 a4 a5 bd 76 f2 af bd 41 c1 4b be
       -0.017575826 -0.08087972 -0.08591168 -0.1989794
000180 87 71 5b bb 60 b8 2f 3d 5c bb 2d bc 4e 5a b8 3c
       -0.0033484416 0.042900443 -0.010603752 0.022503998
000190 0c 13 87 3d 9b b3 12 be b6 93 d4 bd 8a a7 3f bf
       0.0659543 -0.14326327 -0.10379736 -0.7486502
0001a0 e2 a5 37 be aa 4a 96 be ac 97 a4 be 6a 46 de be
       -0.17934373 -0.2935384 -0.32146966 -0.43413097
0001b0 8a 11 2b bd 07 98 65 3d 53 c3 30 3d 2b f7 86 3e
       -0.041764773 0.056053188 0.043155026 0.2636045
0001c0 a4 48 f7 bd 0c fa 15 bf 5a 97 62 3d 2d 38 12 bf
       -0.12074402 -0.58584666 0.05532012 -0.5711697
0001d0 b3 da ea bd fa 62 f7 be 9b c5 ec bb da f4 c3 be
       -0.11467495 -0.483177 -0.007225705 -0.38272744
0001e0 82 be ce bd 01 99 7e be f9 52 9d be 46 9b b8 be
       -0.1009493 -0.24863054 -0.30727366 -0.36055964
0001f0 56 ea 92 3c 95 28 8a bc 9f 91 85 bd 80 c6 d4 bc
       0.017934006 -0.016865054 -0.06521916 -0.025973558
000200 5d 92 7a 3d 51 69 85 3d ba 6c 43 3e a1 01 81 3e
       0.06117474 0.06514228 0.19084445 0.25196555
000210 90 9b 00 3c 3a 01 4d 3d 73 d6 25 3d 67 84 57 3d
       0.007849589 0.050049998 0.040487718 0.052616503
000220 37 04 0d be b1 be 0d bd c1 6c 77 3d c7 b7 8d ba
       -0.13771139 -0.034605686 0.06040645 -0.0010812216
000230 08 a2 f5 be 05 3a c1 be 41 ef fa be 36 77 d4 be
       -0.47975183 -0.37739578 -0.4901066 -0.414972
000240 97 db 76 be 9b 60 4f be 77 8e 24 be d5 a2 48 be
       -0.24107204 -0.20251696 -0.16069971 -0.19593365
000250 85 f2 ea bd db fc cd bc 20 df c7 3d a3 a7 62 3e
       -0.11472038 -0.025144985 0.097593546 0.22134261
000260 da 50 5e 3e 73 cc ff 3d a4 f8 b8 bc 91 76 7b be
       0.2171053 0.124901675 -0.022579499 -0.24556948
000270 e7 03 55 3e 71 27 a0 bc 90 74 c0 3d c7 57 9a bd
       0.2080227 -0.019550057 0.093972325 -0.075362734
000280 f8 64 03 bf 5b 00 db be 3e 1a a9 be f2 70 7e be
       -0.5132594 -0.4277371 -0.33027834 -0.24847773
000290 ce e6 be bd 55 e0 2c 3d 4b 82 17 3e f0 ae 8e 3e
       -0.09321366 0.042206127 0.14795797 0.27867842
0002a0 0f 84 12 3e d1 4b 48 3e 2f 38 5b be 08 0d ba be
       0.14308189 0.19560172 -0.21408151 -0.36338067
0002b0 a3 6e b5 3e 8a a5 fc 3d 48 43 73 be 63 3c 2a bf
       0.35435972 0.123362616 -0.23756135 -0.6649839
0002c0 57 c7 6a bc 39 36 5d 3d c1 d5 f0 3d 0e 8a 42 3d
       -0.014329753 0.05400679 0.1175952 0.04749494
0002d0 49 e9 e6 3b 86 31 94 3c 75 8c 75 bd 86 4f 43 bd
       0.0070468527 0.01809002 -0.059948403 -0.04768326
0002e0 bb d0 4f 3d 77 ad 07 3d 1c cf 4d bd 5d 90 69 bd
       0.05073617 0.033124413 -0.050246343 -0.05702244
0002f0 da f1 07 be 7f 25 3e be 77 40 ad be 38 25 bb be
       -0.13275853 -0.18568991 -0.33838245 -0.36551833
000300 c1 0c df 3d 47 b7 de 3d 7e 44 dd 3d 36 59 90 3d
       0.108911045 0.10874801 0.108040795 0.07048266
000310 7d 27 5f 3c bf 1c 4e bd 11 d4 dd 3d 4b f3 67 3d
       0.013620255 -0.050320383 0.10831464 0.056628507
000320 8c 29 0c be 4d f1 dd bd 75 f6 0f be a1 c6 31 be
       -0.13687724 -0.1083704 -0.1405886 -0.17360927
000330 60 8b ba be a4 71 d7 be be 58 32 bf 0c 8e 24 bf
       -0.3643446 -0.42078888 -0.6966666 -0.64279246
000340 9b 82 ad bd e2 ba 68 be 5d ca 9e 3a 59 41 d0 bd
       -0.08472177 -0.2272754 0.0012114752 -0.10168714
000350 91 e4 4c 3e 2c f3 8e 3e 1b 7a 58 3d 83 b4 00 3e
       0.20009066 0.279199 0.052850824 0.1256886
000360 da 0b dc bd f0 f3 23 be 77 f1 b0 be 1a 3e cc be
       -0.10744448 -0.16011024 -0.34559223 -0.3989113
000370 85 8f 70 be 72 cb af be e2 da 60 be c8 b2 ad be
       -0.23492248 -0.34334904 -0.21958497 -0.33925462
000380 66 0c fe bd 24 a3 84 bd bb 5a 1c be e4 a6 da bd
       -0.124047086 -0.06476429 -0.15268986 -0.10676363
000390 b8 07 21 3e 74 bd 73 3d 2e c0 0d 3e a5 38 51 3d
       0.157256 0.05950685 0.13842842 0.05107941
0003a0 4c 9c 84 bd 40 ca 65 bd 87 bc 2a be 19 ee c9 bd
       -0.06475124 -0.056101084 -0.1667348 -0.09859867
0003b0 2d 05 99 bc ed 67 01 be 50 67 8d be c7 e6 11 be
       -0.018679226 -0.12637301 -0.27617884 -0.14248191
0003c0 47 57 72 3d af 65 b7 bd e4 bc b9 3d 8f 9f b0 3d
       0.059165265 -0.089549415 0.09069231 0.086241834
0003d0 de 92 c6 be 1f 7d db be 9d 7a 87 be 7e c9 ac be
       -0.38783926 -0.42868897 -0.26460734 -0.33747476
0003e0 9f 79 70 bd ba f5 bd bc 76 86 ed b9 22 79 b8 bc
       -0.058709737 -0.02318846 -0.00045304344 -0.022518698
0003f0 95 d2 33 3d 56 12 08 3e f8 7b a9 be 88 45 92 be
       0.043902 0.13288245 -0.33102393 -0.28568673

module.layer2.0.bias f4 [32]
000000 a4 1f 7a bd df 84 9b 3d 21 a1 3e 3e 65 0e 57 be
       -0.06106533 0.075937025 0.18616153 -0.21001585
000010 ab fd 8d 3e cb d6 b8 bc f1 43 dd bd a0 7a 38 3e
       0.27732596 -0.022563359 -0.108039744 0.18015528
000020 f7 02 cc bd ba 66 b5 3c 1d 3e 5c bc 36 7a 3b bb
       -0.09961503 0.02214371 -0.013442543 -0.002860678
000030 8e eb b5 bc ae ff c8 3d 1c 94 46 bc 1b 42 7d 3c
       -0.022207048 0.09814392 -0.012120273 0.015457655
000040 56 e0 14 3d de 71 c3 3c 83 a5 83 3d 33 3c 0b be
       0.036346756 0.023858007 0.06428053 -0.13597183
000050 e7 45 40 bd 09 e5 5f 3b a2 a4 b5 bd 8e bd bd bd
       -0.046941664 0.0034163615 -0.08869292 -0.0926467
000060 48 fc 99 bd 49 31 12 3e 57 fc 25 3e 0e b4 1d bc
       -0.07518822 0.14276613 0.16209541 -0.009625448
000070 cc b6 e2 bd 95 f1 39 3d b9 95 a7 3d 45 11 90 3d
       -0.11070022 0.045396406 0.08182854 0.07034544

module.layer2.1.weight f4 [32]
000000 c3 00 18 3f 86 6e 1e 3f 84 93 4f 3f fc d7 42 3f
       0.5937616 0.61887395 0.81084466 0.76110816
000010 03 5c 51 3f b4 75 5c 3f e0 e9 06 3f 25 9a 4d 3f
       0.81781024 0.861171 0.52700615 0.8031333
000020 5f eb 35 3f bc bf 67 3f 37 28 64 3f b7 f3 4b 3f
       0.7106227 0.9052694 0.89123863 0.79668754
000030 05 92 61 3f ec 7c 3f 3f 39 f3 40 3f 2a 15 ec 3e
       0.88113433 0.7479999 0.7537113 0.46109897
000040 db bc 60 3f be 79 58 3f 61 95 33 3f 6c cc 86 3f
       0.8778817 0.84560764 0.7014981 1.0531135
000050 12 0c 00 3f c0 c6 5a 3f 89 0b e4 3e 31 a7 6f 3f
       0.5001842 0.8545952 0.4454005 0.9361449
000060 54 81 66 3f fa 55 5e 3f 70 7a 6d 3f 8c 32 80 3f
       0.9004109 0.8684994 0.9276495 1.0015426
000070 43 28 69 3f 60 60 14 3f a8 ee d9 3e 2a f1 3e 3f
       0.9107706 0.57959557 0.42564893 0.7458674

module.layer2.1.bias f4 [32]
000000 b8 a1 1d bf 80 ef 58 bf b9 13 26 bf 46 0c 34 bf
       -0.6157489 -0.8474045 -0.64873844 -0.7033123
000010 cb 2f 49 bf 86 ec 16 bf ed fe 8f be a4 5c 66 bf
       -0.7858855 -0.58954656 -0.2812418 -0.8998511
000020 59 f4 27 bf 6e 53 37 bf 3c 06 1b bf 25 59 4b bf
       -0.6560722 -0.7161168 -0.6055639 -0.794329
000030 99 b2 4c bf 6e 5f 99 be e4 01 2d bf ee 03 0f bf
       -0.7996002 -0.2995562 -0.6758101 -0.5586537
000040 3e 41 2f bf 36 d9 64 bf 63 d7 fb be ee 75 54 bf
       -0.68458927 -0.8939394 -0.49187765 -0.82992446
000050 f9 85 0f bf c0 40 40 bf 6b c9 1d bf ec ad 84 bf
       -0.560638 -0.750988 -0.61635464 -1.0365577
000060 d6 aa 5b bf ea 4c 3e bf a5 6a 54 bf dc 0e 6a bf
       -0.8580755 -0.7433611 -0.82975227 -0.91428924
000070 9d 48 42 bf 35 06 48 bf d8 fd 18 bf bc 74 46 bf
       -0.7589205 -0.7813447 -0.59762335 -0.7752187

module.layer2.1.running_mean f4 [32]
000000 2e 31 60 bf 37 a6 4e bf 12 73 1e bf 8f 1b ac bf
       -0.8757504 -0.80722374 -0.61894333 -1.344591
000010 3a dc 32 bf 80 43 5d bf da 94 07 bf 7d 01 4f bf
       -0.6986729 -0.8643112 -0.52961504 -0.80861646
000020 01 7e 91 bf 08 b4 64 bf c6 ae a7 bf 3b e3 8a bf
       -1.1366578 -0.89337206 -1.3100212 -1.0850595
000030 50 65 84 bf f0 f6 f0 be 6d 79 88 bf 6d a5 05 bf
       -1.0343418 -0.47063398 -1.0662056 -0.52205545
000040 37 d7 91 bf e4 35 a3 bf d0 15 79 bf 57 3e 92 bf
       -1.1393803 -1.2750821 -0.9729891 -1.1425275
000050 31 d6 14 bf 7f 34 86 bf 1a 2a 13 bf 2e cf a7 bf
       -0.5813933 -1.048477 -0.57486117 -1.3110101
000060 91 07 90 bf b4 a9 1e bf 2f 5c 67 bf e7 70 66 bf
       -1.1252309 -0.61977696 -0.90375036 -0.90016025
000070 62 6a 77 bf 85 2d 72 bf 6c bf 05 bf a8 f3 8d bf
       -0.966467 -0.9460071 -0.5224521 -1.1089983

module.layer2.1.running_var f4 [32]
000000 18 3b f1 3e 19 2c b6 3e cd 3f d0 3f 5c 07 cd 3f
       0.47115397 0.3558052 1.626947 1.6017871
000010 86 2b 15 3f 9a 81 56 3f c7 7d 22 3f 04 3a 08 3f
       0.58269536 0.83791506 0.6347317 0.53213525
000020 6d d2 33 3f 66 99 51 3f fd 80 05 40 92 e0 79 3f
       0.7024296 0.8187469 2.0859978 0.9760829
000030 1e 49 56 3f d6 ee 9a 3f 3d 8e 90 3f 9b fd c3 3e
       0.8370532 1.2104137 1.1293408 0.38279423
000040 b3 49 c6 3f db e0 3e 3f 02 1c 83 3f 08 80 7b 3f
       1.5491241 0.7456185 1.0242922 0.98242235
000050 62 96 11 3f fd 9c 2e 3f 7f c5 97 3e 85 e5 40 3f
       0.5687009 0.68208295 0.29642865 0.7535022
000060 32 74 45 3f 22 fb 15 3f 82 69 49 3f 65 ca 10 3f
       0.77130425 0.58586323 0.7867662 0.5655883
000070 2e 0f 0b 3f 61 74 c3 3e bd a3 58 3e 24 81 1d 3f
       0.5432004 0.38174728 0.21156211 0.6152518

module.layer3.0.weight f4 [64, 32, 2, 2]
000000 6c 06 8f be 59 82 b6 3d 7e 70 3e be b1 db 2f 3e
       -0.27934587 0.089115806 -0.185976 0.1717365
000010 e8 a0 17 3d a1 50 b6 3c 06 91 b8 bc a2 31 00 3e
       0.037018687 0.022255244 -0.02253009 0.12518933
000020 e1 5e 80 3c 70 3d 93 3d 7c 6f 0d 3e 8f a7 da 3d
       0.015670242 0.07189453 0.13812059 0.106764905
000030 4f b4 4e be 42 34 23 be a6 dc d0 3d 76 43 f2 3d
       -0.2018597 -0.15937904 0.10198335 0.118292734
000040 1f cb 79 be 3d 63 45 be 1d 20 42 be 68 1c 81 bc
       -0.24393891 -0.19276138 -0.18957563 -0.015760615
000050 b9 60 35 3e d0 17 12 3e f6 50 90 bd 36 be 50 3b
       0.17712678 0.14266896 -0.07046692 0.0031851656
000060 83 1c fa 3c 60 a6 09 be 0f 7c 85 ba d0 95 d1 bd
       0.030531174 -0.13442373 -0.0010184067 -0.102336526
000070 62 74 9a bd 52 f5 b5 bd 6d 79 25 bf d9 d1 b9 be
       -0.075417295 -0.08884682 -0.64638406 -0.36292914
000080 04 5b 7f bd 1d 44 20 be 2f 20 8c be 74 0d 0f be
       -0.06234266 -0.15650983 -0.27368304 -0.13969976
000090 5e ff eb be e7 5f ff be 36 4e 9f be 84 b0 1a bf
       -0.46093267 -0.49877855 -0.31114358 -0.6042559
0000a0 4f 90 e0 be c1 f8 05 bf 31 58 08 be f4 77 51 be
       -0.438601 -0.52332693 -0.13314892 -0.20455915
0000b0 30 ff a9 bd 72 eb 28 bd b1 2d 47 bd cd 12 e2 bc
       -0.08300626 -0.041240163 -0.04862756 -0.027596856
0000c0 02 84 b4 be 5b a8 10 be a5 d6 ff be 0c 93 63 be
       -0.35256964 -0.14126723 -0.49968448 -0.22224063
0000d0 2a 33 2c bd 13 c5 fa bd 38 80 a5 bd b2 f6 d4 bd
       -0.04204098 -0.1224462 -0.080810964 -0.10398616
0000e0 9a 25 b9 3d ab 25 b8 3d c9 32 cb 3c 4b 2b de 3c
       0.09040375 0.089915596 0.02480449 0.027120253
0000f0 3d 03 66 3c 3e 15 2e 3d 1d b7 dc 3c 39 41 4c 3d
       0.014038858 0.042500727 0.026942784 0.04986689
000100 d5 46 1a 3e 0d 28 26 3e a4 e4 35 be bd 20 d5 bd
       0.15066083 0.16226216 -0.17763 -0.10406635
000110 f5 26 81 bd d6 1d a7 3e da 94 cc 3c cb c9 83 3e
       -0.063062586 0.3263995 0.024973322 0.25739893
000120 74 8d 83 bc 82 70 6b bd 44 db 14 bd 36 75 10 be
       -0.016058661 -0.057480343 -0.03634192 -0.14107212
000130 c8 f6 75 be 99 b5 91 be b4 05 c6 be a3 a0 07 bf
       -0.24019921 -0.2845886 -0.38676226 -0.5297949
000140 5d 46 26 bd fe bc cc bc 9e 1c d1 bd 06 e0 23 bd
       -0.040594447 -0.024992462 -0.102105364 -0.040008567
000150 00 54 0f bf 59 2c e8 be 29 c5 c7 be 93 8b b0 be
       -0.5598755 -0.45346335 -0.3901761 -0.34481487
000160 49 b7 96 bd 77 55 f6 bd 08 d3 9a bb 3b 9e f5 3c
       -0.073591776 -0.1202802 -0.004724864 0.029982677
000170 59 e3 e0 bd ea e9 a5 3d 77 71 57 be 89 bb a9 3d
       -0.10980863 0.08101256 -0.21039377 0.082877226
000180 e8 20 16 bf 3b e0 ce be 8f f4 dd be 2e 3d df be
       -0.5864396 -0.4040545 -0.43350646 -0.43601364
000190 a1 57 35 bd fb 03 8c b9 bb 00 d1 bd 06 c8 63 be
       -0.044273023 -0.00026705847 -0.102052175 -0.22244272
0001a0 d5 5f ff bd 35 cf b8 bd fe a1 0f bf dc f2 eb be
       -0.124694504 -0.090238966 -0.56106555 -0.46083724
0001b0 7b 4c 18 3d 55 90 c1 bc 01 30 f2 bb 90 9e 4b be
       0.037182312 -0.023628393 -0.0073909764 -0.19884706
0001c0 98 e2 33 3d 91 ec c9 bd 9e 9a b0 bc 4f 7c af bd
       0.04391727 -0.098595746 -0.021558102 -0.08568632
0001d0 b5 c6 4f be cd 81 d0 3d a2 4a 0b bd b7 f4 24 3e
       -0.20290644 0.101810075 -0.034006722 0.16108976
0001e0 c7 d2 a1 bc 7e 76 03 3e 0b fa 34 be 4c 0e 76 3d
       -0.019753827 0.1283817 -0.17673509 0.06007223
0001f0 37 27 ec 3c aa ac aa 3c ee a7 00 be 93 f9 42 3e
       0.028827293 0.020834286 -0.1256406 0.19040518
000200 a3 0c ec bd 36 76 b0 be f2 28 98 bd 6c d7 9a be
       -0.11525848 -0.34465188 -0.07429685 -0.3024248
000210 1a 6d 2a be ad 3e 24 be 06 39 6d be d3 20 e7 bd
       -0.16643181 -0.16039534 -0.23166284 -0.112855576
000220 14 64 d0 be 70 83 0d 3d c3 55 b2 be ae 38 b7 3c
       -0.40701354 0.034549177 -0.34831056 0.022365894
000230 86 34 e9 bd f3 d3 f5 3c 21 f6 c0 bd ed 10 87 3a
       -0.11386971 0.030008292 -0.09421945 0.0010304727
000240 b4 85 0a bd 83 dc d1 bd a3 54 44 bd 75 ae a0 3a
       -0.033818915 -0.102471374 -0.04793228 0.0012259023
000250 1e 45 13 bd 98 7a 93 bd 60 77 8a be 5d f8 33 be
       -0.035954587 -0.07201117 -0.270442 -0.17575212
000260 ff 98 5f be d9 92 02 be 05 4f 23 be 9e 47 15 be
       -0.21835707 -0.1275133 -0.15948112 -0.14578101
000270 db 13 bf 3c 07 b5 77 be 8b c1 35 3e cd 68 90 be
       0.023324898 -0.2419015 0.17749612 -0.28204957
000280 9a 05 83 3e b4 ca d4 be 7e eb f8 3d 95 c8 74 be
       0.2559021 -0.415609 0.121542916 -0.23904641
000290 7b 05 29 3d e9 bb 9a bc f4 4a 94 3d 95 c3 79 3c
       0.041264992 -0.01888843 0.07240859 0.015244384
0002a0 a9 ed 61 bb 07 60 6b bd 54 05 38 3d e0 84 1c 3d
       -0.0034473932 -0.057464626 0.044926956 0.038212657
0002b0 da 5e 35 bd a2 31 77 be d8 d1 0b be 6a f9 ae be
       -0.04427991 -0.24140027 -0.13654268 -0.34174663
0002c0 0c 78 2a be b1 7d 47 be d6 fe ea bd e6 70 82 be
       -0.16647357 -0.19481541 -0.11474387 -0.2547676
0002d0 39 fa 4e 3e 55 23 ee be 0c 53 39 3e d2 f8 46 be
       0.2021264 -0.4651133 0.18098086 -0.19430855
0002e0 ae 41 d1 be 20 72 10 3d 71 d7 8c be 41 92 e9 3b
       -0.40870422 0.035265088 -0.2750812 0.0071280305
0002f0 90 a7 c3 be de be 76 3d 2f 55 a9 be ce b8 39 3d
       -0.38213778 0.06024062 -0.33072802 0.04534226
000300 66 64 c9 3d ef 2c af bd 1b f0 cf 3d 56 4d 0c be
       0.098336026 -0.08553492 0.10153218 -0.13701376
000310 f1 70 17 3e 39 4d b3 be 90 6a 35 3e 90 b2 56 be
       0.14789177 -0.35019854 0.17716432 -0.20966554
000320 d9 bf 7f 3e 88 ec b4 be e9 c6 57 3e a7 01 35 be
       0.24975528 -0.3533671 0.21071972 -0.17676412
000330 7c 7f 12 3e c7 7c 95 bd 41 10 c4 3d 4c 2c 85 3b
       0.14306444 -0.0729919 0.09573413 0.0040641185
000340 e7 50 be bd 89 6b 43 bd df ad 64 be 3b 84 86 3b
       -0.09292775 -0.047709975 -0.22331952 0.0041051186
000350 17 34 8e bd fb 47 75 be ef ee 0b be da a5 6b be
       -0.06943529 -0.2395324 -0.13665365 -0.23012486
000360 b1 8e 5e bd a5 db c5 bc 49 dd 90 3b 77 2d fd bc
       -0.0543353 -0.024152586 0.0044209105 -0.030905468
000370 ee fa 95 3d ff 4a 97 be 97 c4 00 bd 05 50 6c be
       0.07323252 -0.29549405 -0.031437483 -0.230774
000380 44 a2 c7 bd 11 51 17 be 79 ad 51 bc cc 2a aa be
       -0.097477466 -0.14777018 -0.012797707 -0.33235776
000390 51 5a 79 3e 80 14 bc be a2 b1 e6 bd 04 da 96 be
       0.24350859 -0.3673439 -0.112643495 -0.29463208
0003a0 71 f6 03 3e 94 2b 7a be 98 24 eb 3d 5c f4 10 bd
       0.12886979 -0.24430686 0.11481589 -0.03538929
0003b0 21 96 1e 3e 13 a4 bb be 66 a9 86 3e 5f 73 52 be
       0.15486957 -0.36648616 0.26301116 -0.20551823
0003c0 cb 30 4a 3e 1b 50 83 be bd 97 78 3b cd 48 b0 bd
       0.19745176 -0.25647053 0.003793224 -0.08607636
0003d0 88 7d 20 be e5 97 31 be e0 76 13 be 97 05 1e be
       -0.15672886 -0.173431 -0.14400816 -0.1543182
0003e0 2f 8c 4d bd ef 1a ab be 7b 4f 44 be 2d c1 a5 be
       -0.050182518 -0.33418986 -0.19170944 -0.32373944
0003f0 55 7a 81 3e e9 21 ec be 01 2f 91 3e 42 c6 60 be
       0.25288644 -0.4611962 0.28356174 -0.2195063

module.layer3.0.bias f4 [64]
000000 5b 5a 6b 3d 89 4c 30 3b b6 61 ef bd 95 bb 7a 3d
       0.057459217 0.0026901087 -0.11688559 0.06121405
000010 36 42 94 bd 4b 14 43 bd fc 69 0a 3e 30 a4 9d bd
       -0.07239191 -0.047626775 0.13516992 -0.07697332
000020 d8 88 c6 3c 6e 7f 18 bc 69 d6 ae 3c df f5 6c bc
       0.024235174 -0.009307725 0.021342473 -0.014462917
000030 29 5d dc 3c 92 82 68 bc b7 a9 33 3e 72 e8 a7 bd
       0.026899891 -0.014191287 0.1754521 -0.08198632
000040 fd 56 ee bd 00 71 53 3d f2 bb 2a bd 1b fb 1f 3e
       -0.116376854 0.051621437 -0.041683145 0.15623133
000050 63 43 1f bc 16 4f 30 3e c7 37 3d bc 18 4b db bb
       -0.009720656 0.17217669 -0.011548943 -0.0066923015
000060 98 5e e1 3c 6e 2b 25 3c 2f 33 e4 3d 24 c5 f1 3d
       0.027510926 0.010081155 0.11142575 0.1180518
000070 51 3f 9b 3d c3 60 83 3e 0c 3e b2 bd a9 2d 6d 3e
       0.07580436 0.2565976 -0.08703241 0.23161949
000080 b1 c3 de 3c 71 5e eb 3c 11 15 b1 3d e4 d6 02 bd
       0.027192922 0.028731557 0.08646596 -0.031943217
000090 d0 c0 51 bd 15 93 f6 3d e5 99 c7 bd 5b 99 30 be
       -0.05120927 0.120397724 -0.0974615 -0.17246
0000a0 f2 ab 54 bd 45 40 45 3d c4 c1 c8 3d b9 42 8b 3e
       -0.051921792 0.048156995 0.09802583 0.27199343
0000b0 5e 38 ff bb bd 7f 1a be df 5e 4f 3d ba c3 ad 3c
       -0.007788702 -0.15087791 0.050627586 0.021211494
0000c0 cb e7 96 3c eb ba a8 3d 46 be 9c 3d ab 7f 5f 3d
       0.018421074 0.08238777 0.07653479 0.054565113
0000d0 81 9e b7 ba e8 68 21 3e 0c 73 25 bc 0d fc 12 3d
       -0.001400903 0.15762675 -0.01009823 0.035884906
0000e0 6f 4b ab 3d d4 cf 09 3e 33 64 31 bc fd cf 29 bd
       0.08363997 0.13458186 -0.010827112 -0.04145812
0000f0 1b fd 8f 3c 55 09 6e 3e 73 0f 5c 3c 87 a3 88 3d
       0.017576745 0.23245747 0.013431418 0.06671815

module.layer3.1.weight f4 [64]
000000 75 5f 79 3f 49 3f 93 3f 54 8d 96 3f e9 a9 6d 3f
       0.9741128 1.1503688 1.176188 0.9283739
000010 e1 3f 9d 3f 71 39 9f 3f 04 16 6c 3f e8 cd 93 3f
       1.2285119 1.2439405 0.92221093 1.1547213
000020 07 a7 89 3f ac d8 47 3f c7 c6 8b 3f 25 c6 90 3f
       1.0754098 0.7806499 1.0920037 1.1310469
000030 25 93 83 3f 5f f1 6b 3f 54 46 63 3f f5 16 57 3f
       1.027928 0.9216518 0.8877919 0.84019405
000040 2f e7 8e 3f 96 67 77 3f 9d 5d 99 3f ab af 73 3f
       1.1164302 0.96642435 1.1981694 0.95189923
000050 43 89 70 3f 71 39 4c 3f 3a 5b 5c 3f 7b 82 85 3f
       0.93959445 0.7977515 0.860767 1.0430444
000060 a3 5e a7 3f e8 02 4d 3f 86 e6 84 3f 0f 48 6b 3f
       1.3075756 0.8008256 1.038285 0.9190683
000070 65 7b 92 3f 6d 8f 4e 3f 4c d4 71 3f 3c 49 84 3f
       1.1443907 0.806876 0.94464564 1.0334849
000080 b1 5d 9c 3f 13 34 72 3f 2f b3 b0 3f 76 97 92 3f
       1.2216092 0.9461071 1.3804682 1.1452472
000090 87 40 9d 3f b1 bc 6e 3f c8 02 b1 3f fc 2a 92 3f
       1.2285317 0.9325667 1.3828974 1.1419368
0000a0 62 b8 9b 3f 6e fb 9b 3f 2f 31 74 3f 72 f4 8b 3f
       1.2165644 1.2186105 0.9538755 1.0933974
0000b0 b4 59 85 3f 26 09 70 3f 5d 8d 7f 3f 01 b9 55 3f
       1.0418 0.9376396 0.9982508 0.8348542
0000c0 df 59 b9 3f 4a 03 a6 3f 34 a8 6e 3f e8 8c 88 3f
       1.4480551 1.2969754 0.9322541 1.0668001
0000d0 70 7c 7c 3f 74 66 7b 3f 50 87 66 3f 62 d6 b2 3f
       0.98627377 0.98203206 0.9005022 1.3971674
0000e0 4e e5 94 3f e1 1e 6c 3f 51 40 81 3f 3e 01 9f 3f
       1.1632478 0.9223462 1.0097753 1.2422254
0000f0 5f d9 8b 3f 71 62 73 3f 10 3e 4d 3f e7 90 99 3f
       1.0925711 0.95072085 0.80172825 1.1997346

module.layer3.1.bias f4 [64]
000000 66 d1 0c bf a5 79 76 bf 1e a8 51 bf c8 a4 37 bf
       -0.55007017 -0.96279365 -0.8189715 -0.7173581
000010 e1 fe 85 bf e8 64 78 bf 96 bd 23 bf 06 91 61 bf
       -1.0468408 -0.9702897 -0.6396116 -0.88111913
000020 04 12 40 bf ed 62 fd be 1f 9b 3f bf 17 35 7d bf
       -0.7502749 -0.49489537 -0.7484607 -0.98909134
000030 7d e1 52 bf 47 48 39 bf dc e1 55 bf db 75 09 bf
       -0.8237532 -0.7237591 -0.8354776 -0.5369546
000040 12 a1 73 bf f7 70 37 bf cb 77 5f bf c2 05 41 bf
       -0.9516765 -0.71656746 -0.87292165 -0.7539941
000050 40 a2 56 bf 04 19 f6 be f9 5e 51 bf 93 de 41 bf
       -0.83841324 -0.4806596 -0.8178554 -0.75730246
000060 96 1e 7c bf a2 5e 3c bf b7 da 33 bf fa 20 40 bf
       -0.9848417 -0.735819 -0.7025561 -0.7505032
000070 69 89 57 bf 17 aa 11 bf 05 c8 31 bf 31 eb 41 bf
       -0.84194046 -0.5690016 -0.6944583 -0.757495
000080 65 09 86 bf b3 fa 5b bf 45 23 7d bf 38 d3 6f bf
       -1.0471617 -0.8592941 -0.9888194 -0.9368167
000090 1b 75 5b bf 9f dd 2c bf 5f 61 8f bf ed c0 43 bf
       -0.85725564 -0.67525667 -1.120159 -0.76466256
0000a0 10 ed 64 bf aa a6 79 bf 37 f8 14 bf 17 95 58 bf
       -0.8942423 -0.97519934 -0.58191246 -0.84602493
0000b0 18 e4 5c bf 49 1d 3c bf 9a e0 51 bf 67 57 48 bf
       -0.86285543 -0.73482186 -0.8198334 -0.78258365
0000c0 7f 3b 93 bf bb 29 66 bf a8 b8 4f bf 85 a4 6a bf
       -1.1502532 -0.89907426 -0.8114114 -0.91657287
0000d0 67 2c 54 bf 3a 1d 23 bf 8b 17 48 bf aa 05 90 bf
       -0.8288025 -0.6371647 -0.78160924 -1.1251729
0000e0 f9 19 67 bf 63 82 43 bf a5 9c 20 bf 9c c3 7e bf
       -0.90274006 -0.7637083 -0.6273902 -0.99517226
0000f0 47 d2 40 bf c6 e6 44 bf 34 a1 61 bf 4a 14 8b bf
       -0.7532086 -0.7691463 -0.881366 -1.0865567

module.layer3.1.running_mean f4 [64]
000000 10 3e e7 bd ca 3e 47 be 88 bc a9 be fb db 0a be
       -0.11291134 -0.19457546 -0.3315165 -0.13560478
000010 f3 5d 92 be e6 9d 4c be 5e 94 27 3c 65 09 81 be
       -0.28587303 -0.19982108 0.010228245 -0.2520248
000020 17 5f 08 be 6b 7e 17 be f6 c1 15 be 57 bd 19 be
       -0.13317524 -0.14794318 -0.14624771 -0.15013634
000030 92 33 21 be fe 6d 54 be c4 09 e3 bc ae 6f 6b be
       -0.15742329 -0.20745084 -0.027714618 -0.22991821
000040 80 0a a3 be 5f fc 06 be 75 27 5b be 68 88 88 bc
       -0.31843948 -0.1318221 -0.2140177 -0.016666606
000050 20 53 25 be 4b a5 87 3d 84 18 7b be f8 c7 3f be
       -0.16144991 0.06623324 -0.2452107 -0.18728626
000060 51 18 15 be a0 f0 21 be 99 b8 97 bd 8c 18 13 bd
       -0.14560057 -0.15814447 -0.07408256 -0.03591208
000070 29 dc 91 bd fe c8 11 3e 29 94 a0 be f3 1b 65 3d
       -0.0712207 0.14236829 -0.31363037 0.055934858
000080 27 83 17 be 50 85 2a be 47 8b d9 bd 3b dd 4a be
       -0.14796124 -0.16652417 -0.10622268 -0.19810955
000090 72 dc 73 be 95 6a d4 bc 05 b0 86 be a7 49 a6 be
       -0.23814562 -0.025929729 -0.26306167 -0.32478067
0000a0 d8 a3 5f be 30 8b fe bd 45 ac c6 bd ef c9 0e 3e
       -0.21839845 -0.12428892 -0.097008266 0.13944219
0000b0 9b 4a 3d be a5 a7 9f be a9 c1 c1 bd 93 dc 25 be
       -0.18485491 -0.3118259 -0.09460766 -0.16197424
0000c0 6b 9d cd bd ef 15 c8 bd 9d 7b ab bd 66 63 06 be
       -0.10039791 -0.097698085 -0.08373187 -0.13123855
0000d0 d4 49 1c be e9 55 82 bc e9 b0 3a be 2c e3 13 be
       -0.15262538 -0.015910106 -0.18231548 -0.14442128
0000e0 28 45 96 bd 10 41 b6 bc 62 b2 2b be 5a a0 5b be
       -0.07337409 -0.022247821 -0.16767266 -0.21447888
0000f0 c8 7d 16 be 5a 25 db 3d 71 ff 20 be 15 84 b8 bd
       -0.14696419 0.107004836 -0.15722443 -0.09009568

module.layer3.1.running_var f4 [64]
000000 8a df b2 3d af ee 9c 3d 6a d3 ca 3d 5e fa 74 3d
       0.08734043 0.07662713 0.09903605 0.05980908
000010 a8 68 80 3d f3 d6 7e 3d d5 59 10 3d 38 f1 62 3d
       0.062699616 0.06221671 0.03524192 0.055405825
000020 53 5c dd 3d c7 da 3c 3d 48 94 66 3d 1f 66 76 3d
       0.10808625 0.04610708 0.056293756 0.060155984
000030 d1 e7 73 3d fd 47 70 3d 68 a6 62 3d d2 91 7b 3d
       0.05954725 0.058662403 0.05533448 0.061418362
000040 2b 56 8e 3d 83 0b af 3d ab 86 b3 3d 7a 96 4d 3d
       0.06950029 0.085471176 0.0876592 0.050192334
000050 dd d0 32 3d 7a a4 16 3d b4 a3 6f 3d 23 2e a8 3d
       0.04365622 0.03677795 0.05850573 0.08211925
000060 5c 5a 89 3d 79 5b 5f 3d 90 6e 97 3d 43 34 30 3d
       0.06706688 0.054530594 0.07394135 0.04301859
000070 7a 2a 5f 3d 5f e2 10 3d 9d f3 b0 3d 64 2c ad 3d
       0.05448387 0.035372134 0.086402155 0.084557325
000080 d5 83 85 3d 7b 36 74 3d 8b a9 ab 3d 63 44 72 3d
       0.065192856 0.05962227 0.08381947 0.05914725
000090 5a 02 98 3d c2 ed 5d 3d cf 10 5c 3d 70 ba 6c 3d
       0.074223235 0.05418182 0.053726967 0.05779499
0000a0 5b f4 8b 3d 05 2e 5d 3d 7d 32 d4 3d 0e ac 38 3d
       0.068337165 0.053998966 0.103611924 0.04508596
0000b0 62 3a 51 3d 21 0f a7 3d 37 e6 4b 3d 45 1f 42 3d
       0.05108107 0.081571825 0.049780097 0.047393102
0000c0 2d cc 27 3d fe 8f 95 3d d6 69 c3 3d 3a e9 70 3d
       0.0409662 0.07302855 0.09541671 0.058816172
0000d0 b7 2a 3d 3d 11 48 84 3d 90 9e 2c 3d 88 00 6e 3d
       0.046183314 0.06459058 0.042143404 0.058105975
0000e0 d6 6d 3c 3d d9 60 1b 3d 36 c5 9d 3d 6c 54 75 3d
       0.046003185 0.037934158 0.077036306 0.059894964
0000f0 99 17 6b 3d 63 65 44 3d ee d7 7e 3d 00 00 5a 3d
       0.05739555 0.047948252 0.062217645 0.053222656

module.fc.weight f4 [1, 104000]
000000 9c 94 b8 3b 03 5d 23 be d8 3c 1f 3b d2 19 d1 bd
       0.00563295 -0.1595345 0.002429774 -0.10210003
000010 c5 91 e8 bd ac 47 c6 bd 8f cb 46 3e 63 b7 29 3e
       -0.11355928 -0.09681639 0.19413589 0.16573863
000020 6a c1 bf 3d a0 06 0b bc 73 e5 94 bd 6e f8 1f bd
       0.09363063 -0.008485466 -0.072703265 -0.03905528
000030 8e 61 8b bc ae 34 fb 3d 1a 32 20 3e 73 0d 89 3e
       -0.017014291 0.12265907 0.15644112 0.26768073
000040 93 c3 28 bd b2 29 d8 3d d7 d7 dc bc 60 2c 39 3a
       -0.04120214 0.10554828 -0.02695839 0.00070638023
000050 3e c4 eb b9 58 72 2b bd f1 92 c5 bd 9c bb d2 3c
       -0.00044968905 -0.041857094 -0.096471675 0.025724225
000060 ea 0a 8e bb 87 0d 03 be 3d 3e 8e 3d 00 79 dc 3c
       -0.004334797 -0.12798129 0.06945465 0.026913166
000070 10 17 53 bd 3c a8 06 bd c1 5c d2 bd 44 a1 ed bd
       -0.051535666 -0.032875285 -0.10271598 -0.116030246
000080 90 aa 90 bc b7 29 c1 3d 8a 83 84 3b 0b 09 29 3d
       -0.017659456 0.094317846 0.004044001 0.04126839
000090 7f f1 7a 3d 2b 2b b9 bd 24 c0 5c 3e 97 40 4c be
       0.061265465 -0.09041437 0.21557671 -0.19946514
0000a0 6b 18 12 3d 2b 03 09 3e c2 e0 6b 3e ca 5f ac bd
       0.035667818 0.13380115 0.23034957 -0.08416708
0000b0 85 f9 aa bc b3 3d 22 bd 76 a8 b2 bb 5e db fe bd
       -0.020870933 -0.039609622 -0.005452211 -0.12444185
0000c0 1d f4 87 bd b4 d0 09 3d 57 e9 0b be ca c7 d3 bd
       -0.06638358 0.0336463 -0.13663231 -0.10340841
0000d0 86 e2 f9 3d 65 5b 87 3d 06 5a 03 bd 4e 77 95 3d
       0.12201409 0.06609229 -0.032068275 0.07298146
0000e0 73 94 11 be 6d 98 ec bd f2 72 1e bb 46 c6 95 3d
       -0.14216785 -0.115525104 -0.00241774 0.07313208
0000f0 08 7f 1f 3d 31 17 80 bc 1b b6 af bd ce 87 9f 3d
       0.038939506 -0.015636059 -0.08579656 0.077895746
000100 ca 36 ee bc 03 d0 9b bd d8 8d 2d bd 1e d9 6c 3e
       -0.02907886 -0.076080345 -0.0423716 0.23129699
000110 32 8b 4d 3d ad 2c db bc b9 dd b5 3d 72 96 36 3d
       0.050181575 -0.026754702 0.08880181 0.04457707
000120 9d ab 2f 3d fa 22 e8 bd ef 2c 0b 3e 5c 95 91 bb
       0.042888273 -0.11334796 0.1359136 -0.004442854
000130 5f bb 36 be b2 af 11 3c af 6e 4b 3d 82 44 c7 bc
       -0.17844914 0.008891987 0.049666103 -0.02432466
000140 e2 4a c7 bd 31 6a c8 3c af f1 99 bc 3d 8e d3 3c
       -0.0973108 0.024464699 -0.018792002 0.02582466
000150 84 e8 0e 3d 3e bd 08 3e e8 96 1f 3d e9 0e aa 3d
       0.034889713 0.1335344 0.038962275 0.08303625
000160 79 f6 17 3e 52 6d 1f 3e 68 e0 71 bc 3b bb aa bd
       0.14840116 0.15569046 -0.014762975 -0.08336493
000170 9d ac 63 3d 68 03 5a 3c c1 ed f1 3d a1 85 ac bd
       0.05558454 0.013306476 0.11812926 -0.08423925
000180 92 a0 d4 bc 62 d5 f1 bc f5 5e 17 be 5c 2b 11 bd
       -0.025955472 -0.029520694 -0.14782317 -0.03544174
000190 d8 20 1f 3e 7e 94 0f be 58 3a c6 3d 5f e8 84 3d
       0.15539873 -0.14021489 0.09679097 0.06489634
0001a0 bb c6 0f 3d b3 8a 05 3d 3f f8 88 3d 8e 5c 2f bd
       0.035101634 0.032602977 0.06687974 -0.042812876
0001b0 90 d4 c8 bd 1e 20 b2 3d 08 18 f0 3d ab 88 e8 3d
       -0.09806168 0.08697532 0.117233336 0.11354192
0001c0 ae d5 32 3d b8 7a a6 3d 3c 0d c4 3c ff 8f 76 37
       0.043660812 0.081288755 0.023932092 1.4696269e-05
0001d0 11 3c 4f 3d 27 64 26 be 83 81 09 bc 41 d8 b8 bd
       0.050594393 -0.16249143 -0.008392694 -0.09025622
0001e0 81 51 12 3b e2 7f 5b be 22 3b 02 be 3b 29 94 bd
       0.0022326412 -0.21435502 -0.1271787 -0.072344266
0001f0 79 5d fb 3d 0b 6c a4 3d 5a 1f df 3d 9f b6 a5 bc
       0.12273688 0.0802842 0.10894652 -0.020228682
000200 89 03 3b bd 6e 84 6f bd 86 ab 8f bd 1b 42 2b 3d
       -0.04565767 -0.058475904 -0.070151374 0.04181109
000210 1e 21 0d 3e d6 48 ad 3d 56 ce a4 3d b8 77 4c 3e
       0.13782164 0.08461158 0.08047168 0.19967544
000220 3d 24 88 3d 2c 8e 97 3c 42 18 da 3d 75 3d ba bd
       0.06647537 0.01850041 0.10649158 -0.09093753
000230 36 8c 74 bd c7 6b 6e 3d d9 6a e7 bb 6a 63 52 3d
       -0.059704028 0.058208253 -0.007062298 0.05136434
000240 51 24 c4 3d 87 09 2c 3c 84 8e a1 3d b7 fc 4b 3d
       0.09577239 0.010500318 0.07888511 0.049801555
000250 58 b9 1a bd ac 61 48 be 90 87 3a be 9c 7d a1 3d
       -0.037774414 -0.19568509 -0.18215775 0.07885286
000260 a3 e7 99 3c fb 49 cf bd df e6 82 be 90 39 a7 bc
       0.01878721 -0.101215325 -0.25566766 -0.02041319
000270 00 01 8f 3d bc 5e 3c bc ac c2 98 3c 98 0a 83 3d
       0.069826126 -0.011497196 0.018647514 0.06398505
000280 6a 6c 82 3d 4a 54 6c 3d 64 9f 99 3d 21 ea 85 3d
       0.063683346 0.05769757 0.075011045 0.06538797
000290 2c 2a 22 3e e7 7d 96 3e fd 19 91 bd 9f 90 94 3d
       0.158364 0.2939293 -0.07085035 0.07254147
0002a0 be 34 fe 3d 25 d2 38 be 32 97 21 3d a3 d9 82 bd
       0.124124035 -0.18048914 0.03945083 -0.06389167
0002b0 d7 4f b7 bd 2c 8d 52 bc 60 90 e8 bd 6e a6 90 bd
       -0.08950775 -0.012851041 -0.11355662 -0.07062994
0002c0 12 02 e9 3d 1f 63 16 3e 6d e4 2d bd f5 e2 fb 3d
       0.11377348 0.14686249 -0.042454172 0.12299148
0002d0 cb 04 8a bc db 74 b5 bc a1 5b 47 3e d8 2e ad bd
       -0.016847989 -0.022150448 0.19468547 -0.084562
0002e0 a0 f4 6e bd 69 94 d8 bd 61 f8 26 3d 38 ff 7f bc
       -0.05833876 -0.10575182 0.040764216 -0.015624814
0002f0 46 a1 97 bd 6f 49 a3 bd c4 a8 f2 bd ea 0d a3 bd
       -0.07403807 -0.07972991 -0.11848596 -0.07961638
000300 97 09 91 37 a0 f3 f5 3d ec fa 9a bd 85 f8 fb bd
       1.7289813e-05 0.120093584 -0.07567391 -0.12303261
000310 7a 6e 87 3c cb 76 12 3e 0d ab 1e be a2 23 6f bd
       0.016532172 0.14303128 -0.15494938 -0.05838359
000320 28 d6 9f bd d0 64 5b 3d 89 dd 89 bd ea 78 c8 3d
       -0.07804519 0.05356294 -0.067317076 0.097886875
000330 58 ea a7 be f0 33 51 3e e3 58 21 bf 8d b9 ea be
       -0.32795978 0.20429969 -0.63026255 -0.4584469
000340 fb e3 06 bf f9 a5 32 be a0 dc 2f be 35 00 c8 3d
       -0.5269162 -0.17446126 -0.17174006 0.097656645
000350 40 24 17 3e 74 79 94 bd db 6e a8 bd 9a fc 74 bd
       0.14759922 -0.07249728 -0.08224269 -0.059811212
000360 27 b4 8c bc 35 40 c2 3d ad 3e 72 bd 16 a9 0e 3e
       -0.017175747 0.09484903 -0.059141804 0.13931689
000370 75 4a 9d 3d a4 c5 68 3d fa 35 c8 bc 87 8c 8b be
       0.07680217 0.05682911 -0.0244398 -0.2725565
000380 15 5f 0d be d5 a7 24 bd c1 99 39 3e 2c 6a 6e 3e
       -0.13805802 -0.04019912 0.18125059 0.23282689
000390 05 59 a3 be fc 1a 84 ba 1d e1 9c be 18 83 e1 bd
       -0.31903854 -0.0010078843 -0.30640498 -0.11011332
0003a0 b0 8d 0d be 7b d8 59 3d d7 d2 38 3e 37 2f 4d be
       -0.1382358 0.053184967 0.18049179 -0.20037542
0003b0 91 c4 a0 bc 38 f9 cc bd 54 35 8f 3d e8 0d c5 be
       -0.01962498 -0.10008472 0.069925934 -0.38487172
0003c0 12 fe 85 be b4 49 8d bd 50 78 b1 3e fa 0f 1c bd
       -0.26170403 -0.068988234 0.34662104 -0.038101174
0003d0 ef e6 43 be e2 05 fd 3d e2 88 2e 3e 38 cd 64 bf
       -0.19131063 0.12354638 0.17044404 -0.8937564
0003e0 a8 4f e1 be 99 7e f4 be 0e e8 4e bf f9 35 e0 bd
       -0.44006085 -0.47752836 -0.8082284 -0.109477945
0003f0 7a e6 fe be cb 8a 99 be 7f e4 23 bd 09 45 91 3d
       -0.49785215 -0.29988703 -0.040012833 0.070932455
