results_CNN/cnn_new_state_augmented_50.pth (torch, 468626 bytes, 19 tensors)

module.layer1.0.weight f4 [16, 3, 2, 2]
0	0x3d7eef64	0.06224002
1	0x3dda1b2a	0.106497124
2	0xbd36c303	-0.04461957
3	0x3e2ffb81	0.17185785
4	0xbe2de326	-0.16981182
5	0xbc57dc88	-0.013175137
6	0x3e2df809	0.16989149
7	0x3ebdb2f5	0.37050596
8	0x3c7d2e4f	0.015452935
9	0xbe24e3b9	-0.16102494
10	0xbd77cd94	-0.06049879
11	0xbe0d737c	-0.13813585
12	0x3e803cdc	0.25046432
13	0x3e26bed5	0.16283734
14	0x3e7e2b17	0.24821125
15	0x3ecd2f7f	0.400753
16	0xbd7fb1a8	-0.062425286
17	0xbc3c9104	-0.011509184
18	0x3d27e3b3	0.040988635
19	0xbdba003b	-0.09082075
20	0xbd320be4	-0.04346837
21	0xbe4591f9	-0.19293965
22	0xbe8b16eb	-0.27165923
23	0xbe446e23	-0.19182639
24	0xbe9958c3	-0.29950532
25	0xbeb1ad97	-0.3470275
26	0xbe816fdd	-0.25280657
27	0xbec90d7c	-0.392681
28	0xbe95e6ac	-0.2927755
29	0x3de5a3a1	0.1121285
30	0x3e1e2c61	0.15446617
31	0x3e3c287b	0.18374817
32	0x3e3ff22d	0.18744726
33	0x3da43285	0.08017448
34	0x3e1dd5a0	0.15413523
35	0xbe298ed6	-0.16558394
36	0xbd0fc252	-0.035097428
37	0xbe9a2f61	-0.30114272
38	0x3b33e8df	0.0027452034
39	0xbe1d9c8e	-0.15391752
40	0x3eb96731	0.3621154
41	0x3ee5ea37	0.44905254
42	0x3dea3f62	0.114378706
43	0x3e36045a	0.17775097
44	0xbc2d22ae	-0.01056735
45	0xbd3a47ed	-0.04547875
46	0x3d6e1498	0.05812511
47	0x3e5a264e	0.21303675
48	0xbe572acb	-0.21012418
49	0xbd067827	-0.03282943
50	0xbe62e906	-0.22159204
51	0x3e81238e	0.2522244
52	0xbe894f3d	-0.26818267
53	0xbdbaa82a	-0.09114106
54	0xbcfd6d51	-0.030935915
55	0x3df3e1d1	0.119083054
56	0x3d9d9b24	0.07695606
57	0x3c0dce24	0.008655105
58	0x3ebb78a1	0.3661547
59	0x3ebe670b	0.3718799
60	0xbe545f1b	-0.20739405
61	0xbe837233	-0.25673065
62	0x3da842e5	0.08215884
63	0x3e1e631e	0.15467498
64	0x3e4aa006	0.19787607
65	0x3ec04cbf	0.37558553
66	0x3e9b8734	0.3037659
67	0x3cf696fc	0.030101292
68	0xbe9f85ba	-0.31156713
69	0x3dabdfce	0.08392297
70	0x3e2ad49d	0.16682668
71	0xbe83fe38	-0.2577989
72	0xbf593a16	-0.8485426
73	0xbeda7322	-0.42665964
74	0xbe9272da	-0.2860325
75	0xbdc11b5d	-0.09429047
76	0xbe7365f9	-0.23769368
77	0x3e17b2bf	0.1481428
78	0xbd1dc09d	-0.03851377
79	0xbd83e502	-0.06440164
80	0xbd0274f7	-0.031849828
81	0x3c8de600	0.017321587
82	0x3e2443e9	0.1604153
83	0x3cb81249	0.022469657
84	0x3e9c654d	0.30546036
85	0xbdf316dc	-0.118695945
86	0x3d1e913e	0.038712732
87	0x3ea2fe13	0.31834468
88	0xbeae7485	-0.34073272
89	0xbe288381	-0.16456415
90	0xbe1de0ff	-0.1541786
91	0x3ea354d0	0.31900644
92	0x3e605308	0.21906674
93	0xbdad9420	-0.08475518
94	0xbe19193f	-0.14951037
95	0x3c573fc4	0.0131377615
96	0xbe003715	-0.12521012
97	0x3d573006	0.052536033
98	0xbe35d631	-0.17757489
99	0xbe64c135	-0.22339328
100	0x3de9776b	0.1139973
101	0x3e661c26	0.22471675
102	0x3ec300de	0.380866
103	0x3e0a0d40	0.13481617
104	0xbe66162b	-0.22469394
105	0x3d20ffc4	0.039306417
106	0x3d8a5906	0.06755261
107	0x3cd236c2	0.025660876
108	0xbc15cd40	-0.009143174
109	0x3d1559b8	0.036462516
110	0x3e57af84	0.21063048
111	0x3e517f47	0.20458709
112	0x3e5a5fe4	0.21325642
113	0xbd9b0b0d	-0.07570467
114	0x3e506b0d	0.20353337
115	0xbcab40c6	-0.02090491
116	0xbe30d9f9	-0.1727065
117	0xbe51863f	-0.20461367
118	0xbe7e150f	-0.2481272
119	0x3de64671	0.112439044
120	0x3d493049	0.049118314
121	0xbda01da5	-0.07818154
122	0xbe096406	-0.13417062
123	0xbcf8d279	-0.030373799
124	0x3dadff21	0.084959276
125	0xbe5d2dcb	-0.215995
126	0xbeb94154	-0.36182654
127	0xbdbe0e9b	-0.092801295
128	0xbbea5956	-0.007151763
129	0x3e721efb	0.2364463
130	0x3e723267	0.2365204
131	0x3e838730	0.25689077
132	0xbecba3ed	-0.39773503
133	0xbe4962b8	-0.19666564
134	0xbf0927cc	-0.5357635
135	0xbee23cfe	-0.44187158
136	0x3d972586	0.07380204
137	0x3e85bcfd	0.2612075
138	0xbe6d351f	-0.23164795
139	0xbe7b3727	-0.24532758
140	0xbdf203fd	-0.11817167
141	0x3e8866bd	0.26640883
142	0x3eac7f1e	0.33690733
143	0xbe6b077e	-0.22952077
144	0x3e3fc249	0.18726458
145	0x3e506c1a	0.20353737
146	0x3eda61b4	0.42652667
147	0x3e0bfbd2	0.1367028
148	0x3e1a2732	0.15054014
149	0xbda7ca25	-0.08192853
150	0xbe4e0f8b	-0.20123117
151	0x3ddb6111	0.10711873
152	0xbe39b2ac	-0.18134564
153	0xbd44aa99	-0.048014257
154	0xbdad9538	-0.08475727
155	0xbe7ba785	-0.24575622
156	0x3e871854	0.26385748
157	0x3e92ee3f	0.28697392
158	0x3ebf6999	0.37385252
159	0x3e404d40	0.18779469
160	0xbe7feaec	-0.2499196
161	0xbe397461	-0.18110801
162	0x3c3fe168	0.011711456
163	0x3d2fc93b	0.042916518
164	0xbe856645	-0.26054588
165	0x3dfec6d8	0.1244027
166	0xbe75bbe1	-0.23997451
167	0xbdb9aeff	-0.09066581
168	0xbeb80d32	-0.35947567
169	0xbd99950a	-0.0749913
170	0x3d6fb584	0.058522716
171	0x3e53ca85	0.20682724
172	0xbda8d4e3	-0.0824373
173	0xbeb777b1	-0.35833505
174	0x3e89cfe8	0.26916432
175	0xbe7b4e14	-0.24541503
176	0x3e5790f7	0.21051393
177	0xbc42f5a1	-0.011899383
178	0x3e01ac6e	0.12663433
179	0x3e1eece6	0.15520057
180	0xbe26031a	-0.1621212
181	0xbe9d6bc1	-0.30746272
182	0x3d07bedd	0.033141006
183	0x3d583a21	0.05278981
184	0xbe248e82	-0.16069987
185	0xbe40d0ff	-0.18829726
186	0x3dd64ae6	0.104635045
187	0x3e8da193	0.27662334
188	0x3e91f7c6	0.2850935
189	0x3eaaed3e	0.33384126
190	0x3e42be6c	0.19017953
191	0x3e0dc473	0.1384447

module.layer1.0.bias f4 [16]
0	0xbe67e001	-0.22644044
1	0xbe6e6101	-0.23279192
2	0x3e05a8df	0.130527
3	0xbe8126f5	-0.25225034
4	0x3d8d3f0f	0.06896793
5	0x3daabbef	0.08336627
6	0xbed6e28c	-0.41969717
7	0xbe4524a0	-0.19252253
8	0xbe6fdfa8	-0.23425162
9	0x3e8f396e	0.27973503
10	0xbdddc8fa	-0.10829349
11	0xbdcde361	-0.10053135
12	0xbe92fadb	-0.28707013
13	0xbe71a325	-0.23597391
14	0x3eb58ade	0.3545751
15	0xbe613c5e	-0.21995685

module.layer1.1.weight f4 [16]
0	0x3f6b625e	0.9194697
1	0x3f85fda7	1.0468034
2	0x3f46f2c6	0.7771419
3	0x3f55c831	0.8350859
4	0x3f616a12	0.88052475
5	0x3f38841d	0.7207659
6	0x3f668061	0.9003964
7	0x3f754279	0.95804554
8	0x3f38d315	0.72197086
9	0x3f6f1abc	0.9340017
10	0x3f7e94c1	0.9944573
11	0x3f75feba	0.96091807
12	0x3f8a53cb	1.0806822
13	0x3f874a21	1.0569497
14	0x3f6db3d2	0.9285251
15	0x3f555cd9	0.833448

module.layer1.1.bias f4 [16]
0	0xbeee481f	-0.465394
1	0xbec7f135	-0.39051214
2	0xbf035dca	-0.51314986
3	0xbe961e6b	-0.29320082
4	0xbe61a1fb	-0.22034447
5	0xbee8db5b	-0.45479855
6	0xbee372f1	-0.4442363
7	0xbe85f3a6	-0.26162452
8	0xbecf1eec	-0.4045328
9	0xbf2ef497	-0.68341964
10	0xbece303c	-0.40271175
11	0xbf095272	-0.53641427
12	0xbefac42b	-0.4897779
13	0xbec50e7a	-0.38487607
14	0xbdeaf2cc	-0.11472091
15	0xbe516779	-0.20449628

module.layer1.1.running_mean f4 [16]
0	0xbd3ba932	-0.045815654
1	0xbd9f1009	-0.0776673
2	0xbed4b8cf	-0.41547248
3	0x3e74147a	0.23835936
4	0x3e876217	0.26442024
5	0x3e9a106e	0.3009066
6	0xbfbadce7	-1.4598664
7	0xbd83682d	-0.06416354
8	0xbd8d6fe6	-0.069061086
9	0x3ede7a6a	0.4345277
10	0xbe148acd	-0.14506073
11	0xbf80643d	-1.003059
12	0xbd4f840e	-0.050663047
13	0xbd6297b6	-0.055320464
14	0x3e985b66	0.2975723
15	0x3deb91fa	0.11502452

module.layer1.1.running_var f4 [16]
0	0x3ca39097	0.019966407
1	0x3d8b9dd2	0.06817211
2	0x3dd2b3e5	0.102882184
3	0x3e3c5f05	0.18395622
4	0x3d39542f	0.0452463
5	0x3d76c3a2	0.060245164
6	0x3e987a41	0.29780772
7	0x3c90e513	0.017687356
8	0x3d7a804f	0.06115752
9	0x3cc239cc	0.0237092
10	0x3ccbe514	0.024889506
11	0x3e729164	0.23688275
12	0x3d552f7f	0.05204725
13	0x3d8cff48	0.068846285
14	0x3c9d9f31	0.019240947
15	0x3db7f3cf	0.0898205

module.layer2.0.weight f4 [32, 16, 2, 2]
0	0xbdec2e30	-0.11532247
1	0xbe08485a	-0.1330885
2	0xbda3993b	-0.07988211
3	0xbe21b44d	-0.15791436
4	0xbea3c21e	-0.31984037
5	0xbeac5792	-0.3366056
6	0xbeb0364f	-0.34416434
7	0xbee024d9	-0.43778113
8	0x3d8c270f	0.06843387
9	0x3cfb0d4b	0.030645987
10	0xbd97986b	-0.07402118
11	0x3d8f1899	0.069871135
12	0x3dd37741	0.1032548
13	0x3e0afd8c	0.13573283
14	0x3d3fbd66	0.046811484
15	0x3d8b4355	0.06799952
16	0xbe70765b	-0.23482649
17	0xbdbed194	-0.093173176
18	0xbcabef88	-0.02098824
19	0x3d26f120	0.0407573
20	0x3d5b701a	0.053573705
21	0x3d381105	0.044938106
22	0x3cf99f0d	0.03047135
23	0xbd357b34	-0.04430695
24	0xbca7556e	-0.020426478
25	0x3df67a61	0.12035061
26	0x3d1178bf	0.035515543
27	0x3de0f69f	0.10984539
28	0x3da1d82c	0.0790256
29	0x3d8e55db	0.069499694
30	0xbc9a5554	-0.018839516
31	0x3d0927c1	0.033485178
32	0xbcc7b7cf	-0.024379639
33	0x3d1c2131	0.03811759
34	0x3ce036a9	0.027369814
35	0x3d2dd795	0.042441923
36	0xbe8e2af3	-0.27767143
37	0xbec9cb9d	-0.39413157
38	0xbdfc1def	-0.12310397
39	0xbed1b653	-0.40959415
40	0xbe3e7f50	-0.18603253
41	0xbd25bb84	-0.040462032
42	0xbe53128e	-0.20612547
43	0xbd316bed	-0.043315817
44	0x3d047836	0.032341205
45	0x3dd7d059	0.10537786
46	0xbe1baa9b	-0.152018
47	0x3dfb9e88	0.12286097
48	0xbea9f005	-0.33190933
49	0x3c3c4115	0.011490126
50	0xbe0d8f85	-0.1382428
51	0xbe12865e	-0.1430907
52	0xbdb57236	-0.08859675
53	0xbe3a0309	-0.1816522
54	0x3d0d4a87	0.034494903
55	0xbe41fe6b	-0.18944709
56	0xbe30bd6b	-0.17259757
57	0xbd9634d7	-0.07334297
58	0xbd5f0010	-0.05444342
59	0xbcb5db09	-0.02219917
60	0xbe11ca5f	-0.14237355
61	0xbd05db0c	-0.032679603
62	0x3cfaf464	0.030634113
63	0x3d8ed055	0.0697333
64	0xbd6bda91	-0.057581488
65	0xbd43a614	-0.047765806
66	0xbe599c51	-0.21251036
67	0xbeadd14d	-0.33948746
68	0x3df61c80	0.12017155
69	0xbe490e57	-0.19634376
70	0x3d8e6d86	0.06954484
71	0xbe45c53b	-0.19313519
72	0xbaeb008a	-0.0017929238
73	0x3d8d6055	0.069031395
74	0x3c25e70e	0.0101258885
75	0x3c03cce3	0.008044454
76	0x3d687b9e	0.056758516
77	0x3d46ae62	0.04850615
78	0x3cd6b024	0.026207037
79	0x3dc8ffcc	0.098144144
80	0xbdb21e2b	-0.0869716
81	0xbd99a809	-0.07502753
82	0xbe0f6975	-0.14005072
83	0xbe67b88f	-0.22628997
84	0xbcc27ffd	-0.02374267
85	0x3c289aa1	0.010290773
86	0x3ccb677a	0.024829615
87	0x3cbfe9db	0.02342694
88	0x3ceedfc2	0.02915943
89	0x3e002c24	0.12516838
90	0x3d84d2db	0.0648553
91	0x3e629698	0.2212776
92	0xbd0cfe9e	-0.03442251
93	0xbd69cd66	-0.05708065
94	0xbd9bbb54	-0.076040894
95	0xbe099c4c	-0.13438529
96	0x3cd12ee1	0.025535049
97	0x3d5a3e27	0.05328193
98	0xb9d0f537	-0.0003985555
99	0x3cdff7ca	0.027339835
100	0x3c6cd29a	0.014454508
101	0xbe410806	-0.18850717
102	0xbddef60a	-0.10886772
103	0xbed74b8f	-0.42049834
104	0xbe6c16d1	-0.23055579
105	0xbe40d57e	-0.18831441
106	0xbe81340b	-0.25235018
107	0xbea89720	-0.329278
108	0x3be9889c	0.007126881
109	0x3d810845	0.063004054
110	0x3c6c75b7	0.014432362
111	0x3e1624d2	0.14662483
112	0xbcb386da	-0.021914888
113	0xbe8c8baa	-0.27450305
114	0x3c69123d	0.01422554
115	0xbe8a2649	-0.26982334
116	0xbd6da786	-0.05802109
117	0xbe4d5c97	-0.20054851
118	0xbd39f106	-0.045395873
119	0xbe4a4c8c	-0.19755763
120	0xbe3868ec	-0.18008775
121	0xbe4441c7	-0.19165717
122	0xbe84830d	-0.25881234
123	0xbe8fe777	-0.2810628
124	0xbc6c805e	-0.014434902
125	0xbd28dfc3	-0.04122902
126	0xbda415bc	-0.08011958
127	0xbb166d7d	-0.0022953444
128	0x3db56324	0.088568
129	0x3d9fe856	0.078079864
130	0x3e4c1a84	0.1993199
131	0x3e585f39	0.21130075
132	0x3c6ef9ae	0.014585895
133	0x3ce0844f	0.02740684
134	0x3c94311f	0.018089829
135	0x3c3e4944	0.011614148
136	0xbd4ddbac	-0.050258324
137	0x3d36dc18	0.04464349
138	0x3dc06813	0.093948506
139	0x3d06c79c	0.032905206
140	0xbe461e50	-0.19347501
141	0xbe61b644	-0.22042185
142	0xbea68fee	-0.32531685
143	0xbe9cb97e	-0.3061027
144	0xbe30f353	-0.17280321
145	0xbde488c2	-0.11158897
146	0xbe25bd82	-0.16185573
147	0xbe344c3d	-0.17607208
148	0xbe1fa061	-0.15588523
149	0xbe060756	-0.13088736
150	0xbdcdaf40	-0.10043192
151	0xbd836454	-0.064156204
152	0x3e41ad0f	0.18913673
153	0x3d63f6a4	0.055655137
154	0x3baebca4	0.0053325463
155	0xbe2ff423	-0.17182975
156	0x3e326b3a	0.17423716
157	0x3d660d7f	0.056165215
158	0xbbc67203	-0.0060560717
159	0xbe71db3c	-0.23618788
160	0xbea99dc1	-0.3312817
161	0xbe8c2646	-0.2737295
162	0xbe9b2448	-0.30301118
163	0xbe505b7a	-0.20347396
164	0xbe05fa2d	-0.13083716
165	0x3b6e33a0	0.003634669
166	0x3e1de4c2	0.15419295
167	0x3e75d94c	0.24008673
168	0x3d86f3a5	0.0658944
169	0x3e127fdb	0.14306585
170	0xbd9623a3	-0.07331016
171	0xbe856dc6	-0.26060313
172	0x3e2ff8b3	0.17184715
173	0x3da5ac1c	0.08089468
174	0xbd9a9c56	-0.0754935
175	0xbe481ff9	-0.19543447
176	0x3d7115a7	0.05885854
177	0x3ba582a4	0.005050974
178	0x3df982a7	0.12183123
179	0x3d4b36d4	0.049612835
180	0x3d50cbb4	0.050975516
181	0x3d5df08d	0.054184485
182	0xbd9216ef	-0.071332805
183	0xbd42fa5e	-0.04760205
184	0x3b8ce22c	0.0042994227
185	0x3cba64b1	0.022753092
186	0xbc940a77	-0.018071396
187	0xbcb8039f	-0.022462664
188	0xbd0ff5cf	-0.03514653
189	0xbdf0ffe2	-0.11767556
190	0xbe32da87	-0.17466174
191	0xbe4ac40b	-0.19801347
192	0x3d20a7a3	0.03922237
193	0x3db9d00a	0.090728834
194	0x3da41d43	0.08013394
195	0x3cf030aa	0.02932008
196	0x3bc65c00	0.0060534477
197	0xbd14ec1f	-0.036357995
198	0x3d82df2e	0.063902244
199	0x3d2692bf	0.04066729
200	0xbdde85df	-0.10865378
201	0xbc995b11	-0.018720182
202	0xbd8eb55a	-0.06968184
203	0xbda54927	-0.08070593
204	0xbe742be4	-0.23844868
205	0xbe6ab4ef	-0.22920583
206	0xbed831e0	-0.42225552
207	0xbebdae35	-0.37046972
208	0x3d1d343b	0.03837989
209	0xbdcacb1d	-0.09902022
210	0x3d2a01c7	0.0415056
211	0xbd5fda75	-0.054651696
212	0x3d8be3e2	0.068305746
213	0x3e1163cd	0.14198227
214	0x3b824d25	0.0039764815
215	0x3d083bd2	0.033260174
216	0xbe20b964	-0.15695721
217	0xbcb92446	-0.022600304
218	0xbe8190a0	-0.25305653
219	0xbe5a6dc0	-0.21330929
220	0xbe141845	-0.14462383
221	0xbe53443c	-0.20631498
222	0xbe39b6cd	-0.18136139
223	0xbe7a4a6d	-0.24442454
224	0xbe171283	-0.14753155
225	0xbe09f690	-0.13472962
226	0xbe071d4d	-0.13194771
227	0xbe181e80	-0.14855385
228	0x3d30d623	0.043172967
229	0x3d484504	0.048893943
230	0x3e077551	0.13228346
231	0x3d8c4059	0.06848211
232	0x3c5eaca4	0.013590965
233	0xbcea5525	-0.028605053
234	0xbd4c38d6	-0.04985889
235	0xbd576d50	-0.052594483
236	0xbda7e5e0	-0.08198142
237	0xbd5f7a87	-0.05456021
238	0xbe57a950	-0.21060681
239	0xbcf902f6	-0.03039692
240	0xbd0fa5d7	-0.035070267
241	0xbd8df9fd	-0.06932447
242	0x3de9066a	0.113781765
243	0x3dbb472e	0.09144436
244	0xbef4dc1f	-0.4782419
245	0xbefa92aa	-0.4894002
246	0xbeeda55a	-0.46415216
247	0xbf030dd3	-0.5119297
248	0xbd617c18	-0.055049986
249	0x39decdf7	0.00042496595
250	0xbcfabbe0	-0.030607164
251	0xbc810e8e	-0.01575401
252	0x3b940c7f	0.004518091
253	0x3d9d585e	0.0768287
254	0xbe39b6e2	-0.1813617
255	0xbe0cd173	-0.13751774

module.layer2.0.bias f4 [32]
0	0xbc49a358	-0.012307011
1	0x3bf9c4b8	0.0076223277
2	0x3e219e49	0.15783037
3	0xbe356e41	-0.1771784
4	0x3de45191	0.1114837
5	0xbd6f9d9a	-0.05849991
6	0xbda2873f	-0.079359524
7	0x3e556af1	0.20841576
8	0xbd6eaa1d	-0.0582677
9	0xbcdd7696	-0.027034085
10	0xbe022417	-0.1270908
11	0x3d96d18a	0.07364185
12	0xbd341251	-0.04396278
13	0x3e4a5027	0.19757138
14	0x3d5ac3e6	0.05340948
15	0xbd315449	-0.04329327
16	0x3df2fc6b	0.11864551
17	0x3badc120	0.0053025633
18	0x3bdfc7dc	0.006829245
19	0xbdbd8198	-0.09253234
20	0x3b1004ee	0.0021975595
21	0x3c944ef7	0.01810406
22	0xbdb7d12b	-0.089754425
23	0x3c315429	0.010823288
24	0xbde9e0e3	-0.11419847
25	0x3e114242	0.14185432
26	0x3dd5c2c3	0.104375385
27	0x3d8de1aa	0.06927808
28	0x3da506b5	0.0805792
29	0xbb266472	-0.002538946
30	0x3d55d4a9	0.05220476
31	0x3d9a5097	0.075349025

module.layer2.1.weight f4 [32]
0	0x3f255140	0.645771
1	0x3f218526	0.63093793
2	0x3f5a495c	0.8526819
3	0x3f483cd3	0.7821781
4	0x3f522523	0.82087916
5	0x3f63d720	0.8900013
6	0x3f19a478	0.60016584
7	0x3f5137ba	0.81725657
8	0x3f2fd3a9	0.6868234
9	0x3f66c7c2	0.90148556
10	0x3f5c5615	0.8606885
11	0x3f4f645b	0.81012505
12	0x3f60b9b2	0.8778335
13	0x3f4acffd	0.79223615
14	0x3f411dd6	0.7543615
15	0x3f0db3e9	0.55352646
16	0x3f5aee9b	0.85520333
17	0x3f5127de	0.8170146
18	0x3f36de5b	0.7143304
19	0x3f85ed0f	1.046297
20	0x3f0e77d9	0.55651623
21	0x3f5d1209	0.86355644
22	0x3eeee2fb	0.46657547
23	0x3f6dfc0b	0.9296271
24	0x3f6202d7	0.88285583
25	0x3f5d44f3	0.86433333
26	0x3f6bdabb	0.9213063
27	0x3f83bbf0	1.0291729
28	0x3f6e2f00	0.93040466
29	0x3f18be3e	0.59665287
30	0x3ef39b2e	0.4757933
31	0x3f345698	0.7044463

module.layer2.1.bias f4 [32]
0	0xbefda3f1	-0.4953914
1	0xbf4cbbdc	-0.7997415
2	0xbf1c22cc	-0.60990596
3	0xbf2ccc1b	-0.6749894
4	0xbf3efe66	-0.7460693
5	0xbf0d5cde	-0.5521983
6	0xbe986498	-0.29764247
7	0xbf5d31f5	-0.86404353
8	0xbf1728f7	-0.5904688
9	0xbf298532	-0.66218865
10	0xbf0ff319	-0.5623031
11	0xbf485180	-0.7824936
12	0xbf40d3ff	-0.7532348
13	0xbe95f7f2	-0.2929073
14	0xbf226fb6	-0.6345171
15	0xbf102041	-0.56299216
16	0xbf26e375	-0.6519082
17	0xbf573d3f	-0.8407783
18	0xbeeb327d	-0.45936957
19	0xbf439544	-0.76399636
20	0xbf13309d	-0.57496053
21	0xbf37d4ca	-0.71809065
22	0xbf0e9d5f	-0.5570888
23	0xbf816a06	-1.0110481
24	0xbf50cc1a	-0.81561434
25	0xbf3c8e39	-0.73654515
26	0xbf4a672e	-0.7906369
27	0xbf58ece9	-0.84736496
28	0xbf3c763b	-0.73617905
29	0xbf39a90f	-0.7252359
30	0xbf079a2b	-0.52969617
31	0xbf41fbf8	-0.757751

module.layer2.1.running_mean f4 [32]
0	0xbef9aef9	-0.48766306
1	0xbf3f0dba	-0.7463032
2	0xbec0792c	-0.37592447
3	0xbf82a842	-1.0207598
4	0xbf34d080	-0.70630646
5	0xbf33c28e	-0.7021874
6	0xbece05a9	-0.40238693
7	0xbf2722a6	-0.65287244
8	0xbf6d5036	-0.9270052
9	0xbf7b3bca	-0.98138106
10	0xbf861b5b	-1.0477098
11	0xbf3b647a	-0.7320019
12	0xbf538d08	-0.8263707
13	0xbe95f143	-0.2928563
14	0xbf3bfb86	-0.7343067
15	0xbebbd2b1	-0.36684182
16	0xbf4b9254	-0.79520154
17	0xbf7b73cf	-0.98223585
18	0xbf4009c1	-0.75014883
19	0xbf867dc2	-1.0507128
20	0xbea41b7f	-0.32052228
21	0xbf702f40	-0.938221
22	0xbe611f58	-0.21984613
23	0xbf7cbf4e	-0.9872941
24	0xbf8ad503	-1.0846256
25	0xbed8361f	-0.4222879
26	0xbf7dc333	-0.99125975
27	0xbf35ad57	-0.7096762
28	0xbf238d9a	-0.6388794
29	0xbf3db3d5	-0.74102527
30	0xbeafc68d	-0.3433117
31	0xbf88c5a1	-1.0685312

module.layer2.1.running_var f4 [32]
0	0x3ea93b30	0.3305297
1	0x3e89449f	0.26810166
2	0x3f6c7436	0.92364824
3	0x3f400ee3	0.75022715
4	0x3edb7988	0.42866158
5	0x3f21a20b	0.6313788
6	0x3f0c7458	0.54865026
7	0x3ebf24f4	0.3733288
8	0x3ed72334	0.42019045
9	0x3f349f8b	0.70555943
10	0x3f680c62	0.90643895
11	0x3ee9d079	0.45666865
12	0x3f141103	0.5783846
13	0x3f3b6150	0.7319536
14	0x3f1bc4fa	0.6084744
15	0x3ea0e53b	0.3142489
16	0x3f5e207a	0.86768305
17	0x3eade35e	0.3396253
18	0x3ef3f1bc	0.47645366
19	0x3f30663d	0.68906003
20	0x3eb0c6e8	0.34526753
21	0x3f064244	0.52444863
22	0x3e97a957	0.29621384
23	0x3ef4002f	0.4765639
24	0x3f01a070	0.50635433
25	0x3ec1ed07	0.3787615
26	0x3f3b906f	0.73267263
27	0x3ec2fc12	0.3808294
28	0x3ec1350d	0.37735787
29	0x3e81312e	0.25232834
30	0x3e334b6d	0.17509241
31	0x3ee955f4	0.4557339

module.layer3.0.weight f4 [64, 32, 2, 2]
0	0xbe06ffab	-0.13183467
1	0x3c9b560c	0.018961929
2	0xbe041280	-0.12897682
3	0x3d475f21	0.048674706
4	0xbc9c837c	-0.019105665
5	0xbc5ba5a6	-0.013406193
6	0xbd23223a	-0.039827563
7	0x3c39d8ac	0.0113431625
8	0x3cd153c9	0.025552647
9	0x3da72610	0.08161557
10	0x3da855d5	0.08219496
11	0x3d871884	0.06596473
12	0xbe2a19d6	-0.16611418
13	0xbe351f2a	-0.1768767
14	0x3c1d0f64	0.009586189
15	0x3bfd60cb	0.007732486
16	0xbd1a5920	-0.037682652
17	0xbd27ef83	-0.0409999
18	0xbd8e8df4	-0.06960669
19	0xbcbcd298	-0.023049638
20	0x3defd11c	0.11709806
21	0x3e0fa357	0.14027153
22	0xbd92eb80	-0.07173824
23	0x39c00333	0.00036623477
24	0xbcb7879a	-0.022403527
25	0xbdc5d4c2	-0.09659721
26	0xbd2d22c3	-0.04226948
27	0xbd9e381f	-0.07725548
28	0xbd22c726	-0.039740704
29	0xbd81bfec	-0.06335434
30	0xbe969e60	-0.29417706
31	0xbe229b56	-0.15879568
32	0xbc94613f	-0.018112777
33	0x3cad2b95	0.021138946
34	0xbe26f0a7	-0.16302739
35	0xbd8164e3	-0.06318071
36	0xbe4bfeb0	-0.19921374
37	0xbe62701f	-0.22113083
38	0xbe8aac53	-0.27084598
39	0xbed9c893	-0.42535838
40	0xbe8d663b	-0.27617058
41	0xbe9a49df	-0.30134484
42	0xbbea1365	-0.0071434253
43	0xbde42a12	-0.11140837
44	0xbd839f44	-0.06426862
45	0x3d4ff0e5	0.050766844
46	0x3be79f0f	0.007068522
47	0x3cf9fa9a	0.030515004
48	0xbe3a824d	-0.18213768
49	0xbd834f78	-0.06411642
50	0xbe887f68	-0.26659703
51	0xbe2375e3	-0.15962939
52	0xbdcaf8be	-0.09910725
53	0xbda5a806	-0.080886886
54	0xbdffe142	-0.124941364
55	0xbdbbd5d0	-0.09171641
56	0x3d897ada	0.06712885
57	0x3d9e6d10	0.07735646
58	0x3b8a3d6b	0.0042187474
59	0x3cea7b02	0.028623108
60	0xbc55ea3b	-0.013056333
61	0x3caa2c60	0.020773113
62	0x3d3467ce	0.04404431
63	0x3d2ad2e9	0.041705046
64	0x3d998032	0.074951544
65	0x3d839fea	0.064269856
66	0xbe5160b9	-0.20447053
67	0xbde7f0ac	-0.113252014
68	0xbd1009f4	-0.035165742
69	0x3e33b4a0	0.17549372
70	0xbc8ed5a3	-0.017435854
71	0x3d6eef7f	0.05833387
72	0xbd001a12	-0.031274863
73	0xbd19316e	-0.037400655
74	0xbd25b6a8	-0.040457398
75	0xbc146cc8	-0.009059139
76	0xbe494977	-0.19656931
77	0xbe453aab	-0.19260661
78	0xbe8716a2	-0.26384455
79	0xbe8a4f9b	-0.2701386
80	0x3b75c3b2	0.0037500677
81	0xbd74d647	-0.059774663
82	0xbd8604e6	-0.06543903
83	0xbcee85b6	-0.029116493
84	0xbec34d7a	-0.38145047
85	0xbe9f60cc	-0.31128538
86	0xbeaf16f9	-0.34197214
87	0xbe797768	-0.24361956
88	0xbd9dd96d	-0.07707486
89	0xbd288d89	-0.041150603
90	0xbd8837fd	-0.06651304
91	0xbce3dff6	-0.027816754
92	0x3d009bb2	0.031398483
93	0x3daab8f6	0.0833606
94	0xbdf220f3	-0.11822691
95	0x3d98e2ee	0.074651584
96	0xbeb88d9c	-0.3604554
97	0xbe622260	-0.22083426
98	0xbee2f995	-0.4433104
99	0xbe996185	-0.29957214
100	0x3c3a2ea4	0.011363659
101	0xbd27df8d	-0.04098468
102	0xbe13fc8a	-0.14451805
103	0xbe5f2c8e	-0.2179434
104	0xbddf85d2	-0.10914196
105	0xbd98cbf3	-0.07460775
106	0xbe9bfac2	-0.3046475
107	0xbe94e82c	-0.29083383
108	0x3c343441	0.010998786
109	0x3b668117	0.0035172158
110	0x3dfa98ef	0.12236201
111	0xbd1cb302	-0.038256653
112	0x3d8f385f	0.06993174
113	0xbd9c186b	-0.07621845
114	0x3da4504e	0.080231294
115	0xbe099ed1	-0.1343949
116	0xbdd197d0	-0.10234034
117	0x3cb0c76c	0.021579467
118	0x3cd66c03	0.02617455
119	0x3d879a67	0.06621247
120	0x3d202284	0.039095417
121	0x3d4401d9	0.047853325
122	0xbda06122	-0.078310266
123	0x3d5fc5ad	0.054631878
124	0x3c8ade00	0.016951561
125	0xbc878863	-0.016544526
126	0xbda6f2f9	-0.08151812
127	0x3d7f1a71	0.062281076
128	0xbd6c0c45	-0.05762889
129	0xbe8185b2	-0.25297314
130	0xbdc0905e	-0.09402536
131	0xbe453eff	-0.19262312
132	0xbe039ce5	-0.1285282
133	0xbdc441ae	-0.0958284
134	0xbe19ae33	-0.15007858
135	0xbc84db76	-0.016217928
136	0xbe8e7358	-0.27822375
137	0xbc659508	-0.014012583
138	0xbe555d7d	-0.20836444
139	0x3bcb7976	0.0062095476
140	0xbd7324f4	-0.059361413
141	0x3d75793f	0.059930082
142	0xbcfee1f3	-0.0311136
143	0x3d203999	0.03911743
144	0x3b928146	0.004470977
145	0x3c1f1b1d	0.009711054
146	0xbe0215c9	-0.12703623
147	0xb99ebdcc	-0.00030277518
148	0xbdaf60b1	-0.08563364
149	0x3b09b607	0.0021013038
150	0xbe4c0a50	-0.19925809
151	0xbd64a4fe	-0.05582141
152	0xbe22fbff	-0.15916441
153	0xbd3eeb2b	-0.046610992
154	0x3b213641	0.0024598988
155	0xbd2bb99c	-0.041925058
156	0x3d0b3f31	0.03399581
157	0xbcc485c1	-0.02398956
158	0xbb2b1cac	-0.002610962
159	0xbd4128b9	-0.047157977
160	0x3e2b5e92	0.16735294
161	0xbeace89f	-0.33771226
162	0x3e16085d	0.14651628
163	0xbe387b8c	-0.1801588
164	0x3d63ab70	0.055583417
165	0xbc8c1cc0	-0.017103553
166	0x3d991b74	0.074759394
167	0x3d9ca1b3	0.07648029
168	0x3c8fe990	0.017567426
169	0xbd32c790	-0.04364735
170	0x399ff705	0.00030510887
171	0x3d8eef23	0.069792055
172	0x3cc0db49	0.023542063
173	0xbe398339	-0.18116464
174	0xbd050e74	-0.032484487
175	0xbe548fdb	-0.20758002
176	0xbe0852e2	-0.13312867
177	0xbd903251	-0.07040847
178	0xbe50c890	-0.20389009
179	0xbd9b44e7	-0.075815015
180	0x3e251e93	0.16124944
181	0xbea374c4	-0.31925023
182	0x3e11d13f	0.14239977
183	0xbe2802f6	-0.1640738
184	0xbe73115f	-0.23737095
185	0x3cfdded8	0.03099005
186	0xbe6c9780	-0.23104668
187	0x3aa352cb	0.0012460587
188	0xbe89d196	-0.26917714
189	0xbba5eadc	-0.005063398
190	0xbe4791b7	-0.1948918
191	0x3bef01fa	0.007293937
192	0x3dbc22d4	0.091863304
193	0xbdbb41fe	-0.091434464
194	0xbb69a0e5	-0.003564888
195	0xbdabe117	-0.08392542
196	0x3e009d93	0.1256011
197	0xbe914a10	-0.28376818
198	0x3db54593	0.08851161
199	0xbe78011a	-0.2421917
200	0x3e52d790	0.20590043
201	0xbeabdaf2	-0.3356548
202	0x3e2060fb	0.15661995
203	0xbe270cc7	-0.16313468
204	0x3df1c614	0.118053585
205	0xbdb6d0cd	-0.08926544
206	0x3e36b5bd	0.17842765
207	0x3a30d3fc	0.00067454553
208	0x3d4d3a96	0.0501047
209	0x3d7600e9	0.06005946
210	0xbd7dd3c1	-0.061969522
211	0x3d16d652	0.036825486
212	0x3de2ee7a	0.11080642
213	0x3d484a50	0.048898995
214	0xbd7e18e1	-0.062035445
215	0x3ca47f9e	0.020080384
216	0x3d3ecea7	0.046583798
217	0x3bae62d0	0.005321838
218	0x3d1d6ea6	0.0384356
219	0xbd2a9c0b	-0.04165272
220	0x3ca47767	0.020076467
221	0xbe87aef4	-0.26500666
222	0xbdc4be69	-0.0960663
223	0xbe39e8b5	-0.18155177
224	0xbcb94bba	-0.022619117
225	0x3d6f3ec5	0.05840947
226	0xbe2cca97	-0.16874157
227	0xbc64e780	-0.0139712095
228	0x3d85a28b	0.06525143
229	0xbd05e249	-0.032686505
230	0xbdf3fe95	-0.11913792
231	0xbe34ba61	-0.17649223
232	0x3e11f59e	0.14253852
233	0xbe280e53	-0.16411714
234	0x3dce60e8	0.10077077
235	0xbdeeb478	-0.116555154
236	0x3dbade3e	0.091244206
237	0xbd315a8e	-0.04329925
238	0x3e5b8cb1	0.21440388
239	0xbe7373b2	-0.23774603
240	0x3e3ec6b3	0.18630485
241	0xbe248df2	-0.16069773
242	0xbc9b49ab	-0.018956026
243	0xbd8a007f	-0.06738376
244	0xbe059d52	-0.13048294
245	0xbdfea2a5	-0.12433366
246	0xbdf06a38	-0.117390096
247	0xbc8d69b9	-0.017262327
248	0xbd5eefbe	-0.054427855
249	0xbe554f17	-0.20830952
250	0xbe22b363	-0.15888743
251	0xbd2e5a03	-0.04256631
252	0x3e2d7fb1	0.16943242
253	0xbe9beb6e	-0.30453056
254	0x3e18e81d	0.14932294
255	0xbe4e6735	-0.20156558

module.layer3.0.bias f4 [64]
0	0x3db422f5	0.0879573
1	0xbd21db23	-0.039515626
2	0xbdcfd9df	-0.101489775
3	0x3c4930b2	0.012279676
4	0x3d7faf93	0.0624233
5	0xbd796669	-0.06088868
6	0x3df18232	0.11792411
7	0x3db84b20	0.08998704
8	0x3da582f2	0.080816165
9	0xbd826453	-0.063667916
10	0xbd1385ab	-0.036016148
11	0x3d169602	0.036764152
12	0x3b001604	0.0019544372
13	0x3d082601	0.03323937
14	0x3e7c32dd	0.24628778
15	0xbdb329e6	-0.08748226
16	0xbd830cf1	-0.06398953
17	0x3d19406a	0.037414946
18	0xbdb838e6	-0.089952275
19	0x3dbe24fb	0.09284397
20	0x3cd2aa71	0.025716038
21	0x3b8822aa	0.004154523
22	0x3bbaa8f6	0.0056964112
23	0xbcd851f0	-0.026406258
24	0xba6d90e8	-0.0009062425
25	0x3cc15d8b	0.023604175
26	0xbb97ccf1	-0.004632585
27	0x3d870ba3	0.065940164
28	0x3de8beec	0.113645405
29	0x3e115e73	0.14196186
30	0x3c00035b	0.0078133
31	0x3d836433	0.06415596
32	0x3da0746c	0.07834706
33	0x3d04fb1d	0.032466043
34	0x3cabae1a	0.020957042
35	0x3d547683	0.051870834
36	0xbd74ba2a	-0.059747852
37	0x3da8104d	0.08206234
38	0xbcd876e1	-0.026423873
39	0xbdd8c55f	-0.105845205
40	0x3d586157	0.052827206
41	0x3db0ed33	0.08638992
42	0x3db2fbd3	0.08739438
43	0x3e24e3a7	0.16102467
44	0xbb502f9e	-0.0031766663
45	0xbd8612f5	-0.065465845
46	0xbdcbc825	-0.09950284
47	0xbcc2b679	-0.02376865
48	0x3d8ca596	0.068675205
49	0x3db26a8c	0.087117285
50	0x3cb356bf	0.02189195
51	0x3c844b75	0.016149262
52	0xbc92526b	-0.017861566
53	0x3dcfaaaf	0.10139977
54	0x3d8cc844	0.06874135
55	0x3cb1b827	0.021694256
56	0xbc4c2ba1	-0.012461574
57	0xbca6c978	-0.02035974
58	0xbc492891	-0.012277738
59	0xbd69bd36	-0.05706521
60	0x3d9c41d2	0.07629742
61	0x3d155031	0.03645343
62	0x3c94335a	0.018090893
63	0x3dd6c89a	0.104874805

module.layer3.1.weight f4 [64]
0	0x3f5fe6ed	0.8746174
1	0x3f7bfc7e	0.9843215
2	0x3f7c4df9	0.98556477
3	0x3f4f52b7	0.8098559
4	0x3f768d16	0.9630903
5	0x3f794e87	0.9738545
6	0x3f4fad0c	0.81123424
7	0x3f6fba58	0.93643713
8	0x3f65768c	0.89634013
9	0x3f38eede	0.7223948
10	0x3f6a2dd1	0.9147616
11	0x3f6dac3a	0.9284092
12	0x3f6339af	0.88759893
13	0x3f47c5c8	0.78036165
14	0x3f43cdc1	0.7648583
15	0x3f46e7ad	0.7769726
16	0x3f663779	0.89928395
17	0x3f5ee339	0.87065464
18	0x3f7ddb02	0.99162304
19	0x3f5d42f0	0.86430264
20	0x3f473c82	0.778267
21	0x3f3eb36b	0.7449252
22	0x3f38e5de	0.7222575
23	0x3f6094dd	0.8772715
24	0x3f80c378	1.0059652
25	0x3f3548ec	0.70814395
26	0x3f729e07	0.9477238
27	0x3f46f8c7	0.77723354
28	0x3f749664	0.9554198
29	0x3f3cd463	0.73761576
30	0x3f597458	0.8494315
31	0x3f622101	0.8833161
32	0x3f85a98f	1.044237
33	0x3f4c4700	0.7979584
34	0x3f8e6f37	1.112769
35	0x3f7c7395	0.98613864
36	0x3f851871	1.0398084
37	0x3f3f84cf	0.74812025
38	0x3f8b1b93	1.086779
39	0x3f76e908	0.9644933
40	0x3f7a247b	0.97711915
41	0x3f7e8136	0.9941591
42	0x3f4a9470	0.7913275
43	0x3f5fb358	0.8738303
44	0x3f5f1b1f	0.8715076
45	0x3f55ec5a	0.8356377
46	0x3f57993a	0.8421818
47	0x3f37e290	0.7183008
48	0x3f8cfd0e	1.1014726
49	0x3f85887a	1.0432274
50	0x3f5569c5	0.83364516
51	0x3f669a43	0.90079135
52	0x3f462eba	0.7741505
53	0x3f5f0a89	0.8712545
54	0x3f4ba631	0.7955046
55	0x3f875450	1.0572605
56	0x3f77eb78	0.9684367
57	0x3f4bc041	0.7959023
58	0x3f48ade7	0.78390354
59	0x3f8561f5	1.0420519
60	0x3f67c8b0	0.905406
61	0x3f4b2e15	0.7936719
62	0x3f3294ae	0.6975812
63	0x3f8506b7	1.0392674

module.layer3.1.bias f4 [64]
0	0xbf020016	-0.5078138
1	0xbf504eb6	-0.81370103
2	0xbf335adb	-0.7006051
3	0xbf13eb1f	-0.5778064
4	0xbf478c17	-0.77948135
5	0xbf4dbc4e	-0.80365455
6	0xbf076d48	-0.52901125
7	0xbf3b3e32	-0.7314178
8	0xbf1b812e	-0.6074399
9	0xbeb5ed78	-0.35532737
10	0xbf1fce8e	-0.6242455
11	0xbf469c5b	-0.7758233
12	0xbf316d49	-0.6930738
13	0xbf241cff	-0.64106745
14	0xbf337b2d	-0.70109826
15	0xbedcb3a8	-0.43105817
16	0xbf2a4a51	-0.6651965
17	0xbf1d58a0	-0.61463356
18	0xbf3fd70c	-0.7493751
19	0xbf20491c	-0.62611556
20	0xbf247aa0	-0.6424961
21	0xbea93425	-0.33047596
22	0xbf2c2847	-0.6724896
23	0xbf2088d6	-0.62708795
24	0xbf39655d	-0.72420293
25	0xbf217e7e	-0.63083637
26	0xbf17846f	-0.5918645
27	0xbf1ee564	-0.6206877
28	0xbf2b2dd9	-0.6686683
29	0xbee64f90	-0.44982576
30	0xbf0a9559	-0.54134136
31	0xbf0db898	-0.5535979
32	0xbf5e925f	-0.86942095
33	0xbf3f1b3c	-0.7465093
34	0xbf484dda	-0.7824379
35	0xbf39a831	-0.72522265
36	0xbf4347c9	-0.7628141
37	0xbf105395	-0.56377536
38	0xbf669b71	-0.90080935
39	0xbf1e4350	-0.6182146
40	0xbf352dfc	-0.7077329
41	0xbf4125ef	-0.7544851
42	0xbeebb048	-0.4603293
43	0xbf2a4bab	-0.6652171
44	0xbf322b10	-0.6959696
45	0xbf11e4ba	-0.56989634
46	0xbf35f96a	-0.710837
47	0xbf1e4938	-0.6183047
48	0xbf60c7f5	-0.8780511
49	0xbf3ebdd1	-0.74508387
50	0xbf3a1a6d	-0.7269657
51	0xbf2ee7bb	-0.6832234
52	0xbf217735	-0.6307252
53	0xbf04d33b	-0.5188481
54	0xbf291d8e	-0.6606072
55	0xbf49865d	-0.7872065
56	0xbf209510	-0.6272745
57	0xbf107e35	-0.56442577
58	0xbec67945	-0.38764396
59	0xbf4579e9	-0.77139145
60	0xbf1fe4e8	-0.6245866
61	0xbf2a5985	-0.66542846
62	0xbf3c1fe7	-0.7348618
63	0xbf59dd76	-0.8510355

module.layer3.1.running_mean f4 [64]
0	0xbdb47ed7	-0.08813255
1	0xbe4c8357	-0.19971977
2	0xbe91a6bf	-0.2844753
3	0xbe1e7302	-0.1547356
4	0xbdfd1276	-0.12357037
5	0xbe38552b	-0.18001239
6	0x3ac22035	0.0014810624
7	0xbd9e928d	-0.07742796
8	0xbd41aaa9	-0.047281895
9	0xbe2f4bdf	-0.17118786
10	0xbe436999	-0.19083251
11	0xbdae2658	-0.08503407
12	0xbe182568	-0.1485802
13	0xbe1421e8	-0.14466059
14	0x3d58aaec	0.05289738
15	0xbe534c4b	-0.20634572
16	0xbe6b12b1	-0.22956349
17	0xbe086840	-0.13321018
18	0xbe65da27	-0.224465
19	0xbd360926	-0.04444232
20	0xbdca595d	-0.09880326
21	0xbda77169	-0.08175928
22	0xbe593080	-0.21209908
23	0xbe3b8c4e	-0.1831524
24	0xbe17d5c0	-0.14827633
25	0xbdc09db6	-0.09405081
26	0xbe26d7f8	-0.16293323
27	0xbd874b15	-0.06606118
28	0xbce0a261	-0.027421178
29	0x3d475b8e	0.048671298
30	0xbe355501	-0.17708208
31	0xbdb4198a	-0.08793934
32	0xbd8017e6	-0.06254558
33	0xbdf815da	-0.12113543
34	0xbe31c20e	-0.17359182
35	0xbdb2ecb4	-0.08736554
36	0xbe6b04c6	-0.2295104
37	0xbd83ea67	-0.06441193
38	0xbe4029ab	-0.18765895
39	0xbe7e926f	-0.24860547
40	0xbdd0aaaf	-0.10188805
41	0xbd679580	-0.05653906
42	0xbdc5e34a	-0.096624926
43	0x3ccef3ef	0.025262801
44	0xbe2810bf	-0.16412638
45	0xbe676e88	-0.22600758
46	0xbe61ea62	-0.22062066
47	0xbe4865c6	-0.19570073
48	0xbcefc403	-0.02926827
49	0xbda75b30	-0.081716895
50	0xbdbf0e4c	-0.09328899
51	0xbe19e2c6	-0.15027913
52	0xbe10a9b5	-0.14127238
53	0xbd837c8c	-0.0642024
54	0xbdbeacd6	-0.093103096
55	0xbdf2ddd4	-0.118587166
56	0xbe0ead9b	-0.13933413
57	0xbe193184	-0.14960295
58	0xbe09ae56	-0.1344541
59	0xbe5633f7	-0.2091826
60	0xbdd29810	-0.1028291
61	0xbd8a35e2	-0.067485586
62	0xbdc59805	-0.09648136
63	0xbd414d9d	-0.04719316

module.layer3.1.running_var f4 [64]
0	0x3d9bc40a	0.07605751
1	0x3d8b5f94	0.068053395
2	0x3dbefba3	0.0932534
3	0x3d3a4b71	0.045482103
4	0x3d43881d	0.04773723
5	0x3d5775d0	0.05260259
6	0x3cf55208	0.029946342
7	0x3d4964e4	0.049168482
8	0x3dc297d3	0.095016144
9	0x3d3fd741	0.04683614
10	0x3d2e815f	0.042603847
11	0x3d63f425	0.055652756
12	0x3d59589a	0.053063013
13	0x3d33c373	0.043887567
14	0x3d4156ba	0.04720185
15	0x3d36fabc	0.044672713
16	0x3d7cd804	0.061729446
17	0x3dc16d2c	0.09444651
18	0x3d8adc9b	0.067803584
19	0x3d312f04	0.04325773
20	0x3d1038a2	0.03521026
21	0x3d1bd8f8	0.038048714
22	0x3d2958cc	0.04134445
23	0x3da5190c	0.08061418
24	0x3d711439	0.058857176
25	0x3d535357	0.05159315
26	0x3d4ad84f	0.049522694
27	0x3d0b7eee	0.034056596
28	0x3d566039	0.05233786
29	0x3d048ca7	0.0323607
30	0x3d9122ef	0.07086741
31	0x3da16999	0.07881469
32	0x3d5e37ea	0.054252543
33	0x3d5f1b54	0.05446942
34	0x3da09a17	0.0784189
35	0x3d63ed05	0.05564596
36	0x3d771118	0.060319036
37	0x3d383e39	0.044981215
38	0x3d47e54a	0.04880265
39	0x3d5234b1	0.05131978
40	0x3d804c2f	0.06264531
41	0x3d54a992	0.051919527
42	0x3db92af5	0.090413965
43	0x3d1c44c3	0.038151514
44	0x3d342455	0.04397996
45	0x3dcbe14f	0.099550836
46	0x3d2c2634	0.04202862
47	0x3d202827	0.039100792
48	0x3d03727d	0.032091606
49	0x3d90b4fa	0.070657685
50	0x3db31d5b	0.087458335
51	0x3d5cba2c	0.053888485
52	0x3d4d3a53	0.05010445
53	0x3d6ad9d3	0.05733664
54	0x3d165ae4	0.036707774
55	0x3d3605e2	0.044439204
56	0x3d0ff3e3	0.035144698
57	0x3d02d2a2	0.031939156
58	0x3d79552e	0.06087225
59	0x3d771f03	0.06033231
60	0x3d5da0a9	0.054108296
61	0x3d0b004d	0.033935834
62	0x3d4cd0f9	0.05000398
63	0x3d387e98	0.045042604

module.fc.weight f4 [1, 104000]
0	0xbcf052fd	-0.029336447
1	0xbc9bd19e	-0.019020852
2	0x3b73ab8b	0.0037181105
3	0xbd5d352d	-0.05400579
4	0x3bdac225	0.006675976
5	0xbdab6fc4	-0.08370927
6	0x3c4339dd	0.011915651
7	0x3dbd297a	0.09236427
8	0x3b487853	0.0030589297
9	0x3c83b8a6	0.016079258
10	0x3d258961	0.040414218
11	0x3d5616f9	0.052268002
12	0xbc9bfbc9	-0.019040959
13	0x3c1c9cf2	0.009558903
14	0x3d94cecb	0.07266005
15	0xbc3f5abe	-0.0116793495
16	0x3d34f852	0.04418213
17	0x3d4a1a14	0.049341276
18	0x3c6560c2	0.01400012
19	0x3b214db4	0.0024612965
20	0xbc1fba68	-0.009749033
21	0x3c1cb3fd	0.009564397
22	0xbd1bab15	-0.038004953
23	0x3a7258f5	0.0009244823
24	0x3d4eda35	0.050501067
25	0x3d01daa3	0.03170265
26	0x3d068d36	0.032849513
27	0xbc35a18e	-0.011085881
28	0xbd5d5829	-0.054039154
29	0xbcf38247	-0.029725207
30	0xbce4b269	-0.027917104
31	0xbbf7eaa9	-0.0075658155
32	0x3bbd99f4	0.005786175
33	0xbd69d1a8	-0.05708471
34	0xbd7fca7f	-0.062448975
35	0xbcba4979	-0.022740113
36	0x3c72c52d	0.014817518
37	0x39843d98	0.00025222893
38	0x3d8856d4	0.06657186
39	0xbcac4e11	-0.021033319
40	0x3d8cdd56	0.06878154
41	0x3cc42ca0	0.02394706
42	0xbc126a45	-0.008936469
43	0xba5753da	-0.0008214094
44	0xbd04d98c	-0.03243403
45	0x3d4dc865	0.05023994
46	0x3ba626d8	0.0050705485
47	0xbd007f8e	-0.031371646
48	0x3d76f6cd	0.06029396
49	0x3da19ef5	0.07891647
50	0x3be64763	0.007027553
51	0x3c63511c	0.013874318
52	0x3a8f38bb	0.0010926941
53	0x3c47a51c	0.012185361
54	0x3d2ebd87	0.042661216
55	0xbd55b55b	-0.052174907
56	0x3d6832e7	0.05668917
57	0xbd017e17	-0.03161439
58	0xbd0d965b	-0.03456722
59	0xbab42cd3	-0.0013746269
60	0x3c8653ac	0.01639732
61	0xb99f48eb	-0.0003038117
62	0x3babe6a5	0.005246001
63	0xbc5b3c55	-0.0133810835
64	0xbd49ec61	-0.049297694
65	0xbd4203b3	-0.04736681
66	0xbc782546	-0.015145605
67	0x3d95680e	0.072952375
68	0xbca8f849	-0.020626204
69	0xbd1690d5	-0.036759216
70	0x3c60af43	0.013713661
71	0xbdbad09d	-0.09121821
72	0xbccee0fc	-0.025253765
73	0xbcc70417	-0.024293942
74	0xbc2379f3	-0.009977805
75	0x3da06d24	0.07833317
76	0xbd344264	-0.044008628
77	0xbd0b29a1	-0.033975247
78	0xbc5e351b	-0.013562466
79	0x3c8bea0d	0.017079378
80	0xbc3ead29	-0.011637964
81	0xbc6196f2	-0.013768898
82	0x3c38b7e5	0.011274313
83	0x3c4b7438	0.012417845
84	0xbaf65764	-0.0018794355
85	0xba6d83e3	-0.0009060485
86	0x3dbcaa16	0.09212129
87	0x3dfc8a23	0.12331035
88	0x3d415c7a	0.047207333
89	0xbc845eab	-0.016158422
90	0xbafb5112	-0.0019173941
91	0x3d0beb5c	0.034160003
92	0x3c0c38dc	0.008558478
93	0xbcb3ed82	-0.021963838
94	0x3d333966	0.04375591
95	0xbda1fe94	-0.07909885
96	0x3d841f38	0.06451267
97	0xbbc3ab42	-0.0059713433
98	0xbbce02b3	-0.006286943
99	0xbb938a70	-0.004502587
100	0x3ca6dc7e	0.02036881
101	0x3c922fc1	0.017845036
102	0x3d859faa	0.06524594
103	0x3d70515a	0.058671333
104	0x3d0f12d2	0.034930058
105	0x3c934929	0.017979221
106	0x3d884996	0.066546604
107	0x3cbba897	0.022907538
108	0x3d1bcb71	0.038035814
109	0x3dc03b45	0.09386305
110	0x3d4342dc	0.047671184
111	0x3cd7c222	0.026337687
112	0xbccf9424	-0.025339194
113	0x3d3a2d3e	0.045453303
114	0x3ca2a2f2	0.019853089
115	0x3cbc67c1	0.022998692
116	0x3d81d95f	0.06340288
117	0xbbd7ef4e	-0.0065898066
118	0xbd11bd06	-0.035580657
119	0xbd559d21	-0.052151803
120	0x3b984586	0.0046469597
121	0xbd49e4e3	-0.04929055
122	0xbd5ed84a	-0.054405488
123	0xbcdf9953	-0.02729479
124	0xbcc9a16d	-0.024613107
125	0x3dbf4137	0.093386106
126	0xbd376a48	-0.044779092
127	0xbd37536c	-0.04475729
128	0xbda8c35b	-0.08240386
129	0xbc2e821b	-0.010651137
130	0xbd1817dc	-0.03713213
131	0x3cf17cfb	0.02947854
132	0x3d4789aa	0.04871527
133	0x3b51f161	0.0032034742
134	0x3c304ce2	0.010760518
135	0xbba11038	-0.0049152635
136	0x3cb0e112	0.021591697
137	0xbb30d5bf	-0.0026982871
138	0x3ca8aac5	0.020589242
139	0x3c72b750	0.014814213
140	0xbbcae5b6	-0.0061919345
141	0xbd80abce	-0.06282769
142	0x3bb6b0d9	0.005575281
143	0x3d5df34f	0.054187115
144	0x3d3d72cb	0.046252053
145	0x3c80af18	0.015708491
146	0x3d4da4b6	0.05020591
147	0x3b1a8a6b	0.0023581039
148	0xbd95ec8d	-0.07320509
149	0x3cb23ac2	0.021756534
150	0xbc2cb9ae	-0.010542316
151	0x3d29f486	0.04149296
152	0x3d2e4cdb	0.042553764
153	0xbcffa1e8	-0.031205133
154	0x3d5c254e	0.053746514
155	0xbcfacd89	-0.030615585
156	0x3d27e889	0.040993247
157	0xbcda9b37	-0.02668534
158	0x3c8c0a21	0.017094674
159	0x3d3b41dc	0.045717105
160	0xbd656bce	-0.056011014
161	0xbcac03e7	-0.020997955
162	0xbd060072	-0.03271527
163	0x3cb1c3ee	0.021699872
164	0x3cebc4c8	0.028780356
165	0x3d069c83	0.032864105
166	0x3c7e9ee2	0.01554081
167	0x3c6f5206	0.014606958
168	0x3d39f9e9	0.04540435
169	0xbd86d2b1	-0.06583155
170	0xbd618a8e	-0.055063777
171	0xbd3de130	-0.046357334
172	0xbd8b2ac2	-0.06795265
173	0x3bb6929a	0.0055716755
174	0xbcebdd35	-0.028792003
175	0x3cb2ac3c	0.021810643
176	0x3cd98fd8	0.026557848
177	0x3c66170e	0.014043583
178	0x3c5fbfd4	0.013656575
179	0xbd64efcb	-0.055892747
180	0xbd20af9d	-0.039229978
181	0xbcc9158d	-0.024546409
182	0x3d3db36f	0.0463137
183	0x3c805f05	0.015670309
184	0xbb40a3d1	-0.0029394517
185	0xbc62d6a8	-0.013845123
186	0x3d882fc5	0.06649736
187	0x3d418014	0.047241285
188	0xbd5f386b	-0.054497164
189	0xbd974273	-0.07385721
190	0xbb9f5e0d	-0.0048635066
191	0x3d369fb1	0.044585887
192	0x3d30fb61	0.043208484
193	0x3d084072	0.033264585
194	0x3b87fe7a	0.004150209
195	0xbc529fda	-0.012855494
196	0xbd1572c4	-0.036486402
197	0xbd2003f2	-0.039066263
198	0xbd9d5dde	-0.07683919
199	0xbd179d4e	-0.03701525
200	0x3cafce8d	0.021460796
201	0x3da2962b	0.079387985
202	0x3ae74afd	0.001764625
203	0x3db1f222	0.08688761
204	0xbe540417	-0.20704685
205	0x3dbc2500	0.09186745
206	0xbe91bdd5	-0.28465143
207	0xbe50f3d4	-0.20405513
208	0xbeb1f39c	-0.34756172
209	0xbe18b747	-0.14913665
210	0xbdacaa62	-0.084309354
211	0xbc7430a8	-0.014904179
212	0x3d3121ee	0.04324525
213	0x3cd357fd	0.025798792
214	0xbd4877bd	-0.048942316
215	0xbd2ba6c7	-0.0419071
216	0x3c7c741d	0.015408543
217	0x3d044264	0.032289878
218	0x3b8415e8	0.0040309317
219	0x3d4f98f2	0.05068297
220	0x3ba6c2a3	0.0050891205
221	0x3d8210b7	0.06350844
222	0xbcb591c4	-0.022164233
223	0xbdfc7a75	-0.12328044
224	0xbdd73218	-0.105076015
225	0x3d7ad3cf	0.061237153
226	0xbbb38db9	-0.005479541
227	0x3d7d83d3	0.061893295
228	0xbe42704a	-0.18988147
229	0x3d18dbf9	0.037319157
230	0xbe4463b7	-0.19178663
231	0xbda346a7	-0.0797246
232	0xbd87048f	-0.06592666
233	0xbcd22c47	-0.025655879
234	0x3d8c19eb	0.06840881
235	0xbdf21912	-0.11821188
236	0xbb9438e8	-0.0045233853
237	0xbc748cd7	-0.014926157
238	0xbcbcaddf	-0.023032127
239	0xbe3df4a8	-0.1855036
240	0xbe395e39	-0.1810235
241	0xbddc2932	-0.10750045
242	0x3e7d2a58	0.24723184
243	0x3d3f39bc	0.04668592
244	0xbe37f0b7	-0.17962919
245	0xbd5a3911	-0.05327708
246	0x3d9c183f	0.07621812
247	0xbe9c4751	-0.3052316
248	0xbe34eb5a	-0.17667904
249	0xbe7cd874	-0.24691945
250	0xbeed7e59	-0.46385458
251	0xbbac7dbe	-0.005264013
252	0xbea5004e	-0.32226795
253	0xbe8536ea	-0.2601846
254	0x3c60e7d1	0.013727144
255	0x3c8d6ee1	0.017264785
